…
I0613 09:34:19.503655 35302 net.cpp:354] The NetState phase (0) differed from the phase (1) specified by a rule in layer loss/top-5
I0613 09:34:19.504429 35302 net.cpp:46] Initializing net from parameters: 
name: "MobileNet"
state {
  phase: TRAIN
}
layer {
  name: "data"
  type: "Data"
  top: "data"
  top: "label"
  include {
    phase: TRAIN
  }
  transform_param {
    scale: 0.017
    mirror: true
    crop_size: 224
    mean_value: 103.94
    mean_value: 116.78
    mean_value: 123.68
  }
  data_param {
    source: "examples/imagenet/ilsvrc12_train_lmdb"
    batch_size: 48
    backend: LMDB
  }
}
layer {
  name: "conv1"
  type: "Convolution"
  bottom: "data"
  top: "conv1"
  param {
    lr_mult: 1
    decay_mult: 1
  }
  convolution_param {
    num_output: 32
    bias_term: false
    pad: 1
    kernel_size: 3
    stride: 2
    weight_filler {
      type: "msra"
    }
  }
}
layer {
  name: "conv1/bn"
  type: "BatchNorm"
  bottom: "conv1"
  top: "conv1"
  param {
    lr_mult: 0
    decay_mult: 0
  }
  param {
    lr_mult: 0
    decay_mult: 0
  }
  param {
    lr_mult: 0
    decay_mult: 0
  }
}
layer {
  name: "conv1/scale"
  type: "Scale"
  bottom: "conv1"
  top: "conv1"
  scale_param {
    filler {
      value: 1
    }
    bias_term: true
    bias_filler {
      value: 0
    }
  }
}
layer {
  name: "relu1"
  type: "ReLU"
  bottom: "conv1"
  top: "conv1"
}
layer {
  name: "conv2_1/dw"
  type: "Convolution"
  bottom: "conv1"
  top: "conv2_1/dw"
  param {
    lr_mult: 1
    decay_mult: 1
  }
  convolution_param {
    num_output: 32
    bias_term: false
    pad: 1
    kernel_size: 3
    group: 32
    stride: 1
    weight_filler {
      type: "msra"
    }
    engine: CAFFE
  }
}
layer {
  name: "conv2_1/dw/bn"
  type: "BatchNorm"
  bottom: "conv2_1/dw"
  top: "conv2_1/dw"
  param {
    lr_mult: 0
    decay_mult: 0
  }
  param {
    lr_mult: 0
    decay_mult: 0
  }
  param {
    lr_mult: 0
    decay_mult: 0
  }
}
layer {
  name: "conv2_1/dw/scale"
  type: "Scale"
  bottom: "conv2_1/dw"
  top: "conv2_1/dw"
  scale_param {
    filler {
      value: 1
    }
    bias_term: true
    bias_filler {
      value: 0
    }
  }
}
layer {
  name: "relu2_1/dw"
  type: "ReLU"
  bottom: "conv2_1/dw"
  top: "conv2_1/dw"
}
layer {
  name: "conv2_1/sep"
  type: "Convolution"
  bottom: "conv2_1/dw"
  top: "conv2_1/sep"
  param {
    lr_mult: 1
    decay_mult: 1
  }
  convolution_param {
    num_output: 64
    bias_term: false
    pad: 0
    kernel_size: 1
    stride: 1
    weight_filler {
      type: "msra"
    }
  }
}
layer {
  name: "conv2_1/sep/bn"
  type: "BatchNorm"
  bottom: "conv2_1/sep"
  top: "conv2_1/sep"
  param {
    lr_mult: 0
    decay_mult: 0
  }
  param {
    lr_mult: 0
    decay_mult: 0
  }
  param {
    lr_mult: 0
    decay_mult: 0
  }
}
layer {
  name: "conv2_1/sep/scale"
  type: "Scale"
  bottom: "conv2_1/sep"
  top: "conv2_1/sep"
  scale_param {
    filler {
      value: 1
    }
    bias_term: true
    bias_filler {
      value: 0
    }
  }
}
layer {
  name: "relu2_1/sep"
  type: "ReLU"
  bottom: "conv2_1/sep"
  top: "conv2_1/sep"
}
layer {
  name: "conv2_2/dw"
  type: "Convolution"
  bottom: "conv2_1/sep"
  top: "conv2_2/dw"
  param {
    lr_mult: 1
    decay_mult: 1
  }
  convolution_param {
    num_output: 64
    bias_term: false
    pad: 1
    kernel_size: 3
    group: 64
    stride: 2
    weight_filler {
      type: "msra"
    }
    engine: CAFFE
  }
}
layer {
  name: "conv2_2/dw/bn"
  type: "BatchNorm"
  bottom: "conv2_2/dw"
  top: "conv2_2/dw"
  param {
    lr_mult: 0
    decay_mult: 0
  }
  param {
    lr_mult: 0
    decay_mult: 0
  }
  param {
    lr_mult: 0
    decay_mult: 0
  }
}
layer {
  name: "conv2_2/dw/scale"
  type: "Scale"
  bottom: "conv2_2/dw"
  top: "conv2_2/dw"
  scale_param {
    filler {
      value: 1
    }
    bias_term: true
    bias_filler {
      value: 0
    }
  }
}
layer {
  name: "relu2_2/dw"
  type: "ReLU"
  bottom: "conv2_2/dw"
  top: "conv2_2/dw"
}
layer {
  name: "conv2_2/sep"
  type: "Convolution"
  bottom: "conv2_2/dw"
  top: "conv2_2/sep"
  param {
    lr_mult: 1
    decay_mult: 1
  }
  convolution_param {
    num_output: 128
    bias_term: false
    pad: 0
    kernel_size: 1
    stride: 1
    weight_filler {
      type: "msra"
    }
  }
}
layer {
  name: "conv2_2/sep/bn"
  type: "BatchNorm"
  bottom: "conv2_2/sep"
  top: "conv2_2/sep"
  param {
    lr_mult: 0
    decay_mult: 0
  }
  param {
    lr_mult: 0
    decay_mult: 0
  }
  param {
    lr_mult: 0
    decay_mult: 0
  }
}
layer {
  name: "conv2_2/sep/scale"
  type: "Scale"
  bottom: "conv2_2/sep"
  top: "conv2_2/sep"
  scale_param {
    filler {
      value: 1
    }
    bias_term: true
    bias_filler {
      value: 0
    }
  }
}
layer {
  name: "relu2_2/sep"
  type: "ReLU"
  bottom: "conv2_2/sep"
  top: "conv2_2/sep"
}
layer {
  name: "conv3_1/dw"
  type: "Convolution"
  bottom: "conv2_2/sep"
  top: "conv3_1/dw"
  param {
    lr_mult: 1
    decay_mult: 1
  }
  convolution_param {
    num_output: 128
    bias_term: false
    pad: 1
    kernel_size: 3
    group: 128
    stride: 1
    weight_filler {
      type: "msra"
    }
    engine: CAFFE
  }
}
layer {
  name: "conv3_1/dw/bn"
  type: "BatchNorm"
  bottom: "conv3_1/dw"
  top: "conv3_1/dw"
  param {
    lr_mult: 0
    decay_mult: 0
  }
  param {
    lr_mult: 0
    decay_mult: 0
  }
  param {
    lr_mult: 0
    decay_mult: 0
  }
}
layer {
  name: "conv3_1/dw/scale"
  type: "Scale"
  bottom: "conv3_1/dw"
  top: "conv3_1/dw"
  scale_param {
    filler {
      value: 1
    }
    bias_term: true
    bias_filler {
      value: 0
    }
  }
}
layer {
  name: "relu3_1/dw"
  type: "ReLU"
  bottom: "conv3_1/dw"
  top: "conv3_1/dw"
}
layer {
  name: "conv3_1/sep"
  type: "Convolution"
  bottom: "conv3_1/dw"
  top: "conv3_1/sep"
  param {
    lr_mult: 1
    decay_mult: 1
  }
  convolution_param {
    num_output: 128
    bias_term: false
    pad: 0
    kernel_size: 1
    stride: 1
    weight_filler {
      type: "msra"
    }
  }
}
layer {
  name: "conv3_1/sep/bn"
  type: "BatchNorm"
  bottom: "conv3_1/sep"
  top: "conv3_1/sep"
  param {
    lr_mult: 0
    decay_mult: 0
  }
  param {
    lr_mult: 0
    decay_mult: 0
  }
  param {
    lr_mult: 0
    decay_mult: 0
  }
}
layer {
  name: "conv3_1/sep/scale"
  type: "Scale"
  bottom: "conv3_1/sep"
  top: "conv3_1/sep"
  scale_param {
    filler {
      value: 1
    }
    bias_term: true
    bias_filler {
      value: 0
    }
  }
}
layer {
  name: "relu3_1/sep"
  type: "ReLU"
  bottom: "conv3_1/sep"
  top: "conv3_1/sep"
}
layer {
  name: "conv3_2/dw"
  type: "Convolution"
  bottom: "conv3_1/sep"
  top: "conv3_2/dw"
  param {
    lr_mult: 1
    decay_mult: 1
  }
  convolution_param {
    num_output: 128
    bias_term: false
    pad: 1
    kernel_size: 3
    group: 128
    stride: 2
    weight_filler {
      type: "msra"
    }
    engine: CAFFE
  }
}
layer {
  name: "conv3_2/dw/bn"
  type: "BatchNorm"
  bottom: "conv3_2/dw"
  top: "conv3_2/dw"
  param {
    lr_mult: 0
    decay_mult: 0
  }
  param {
    lr_mult: 0
    decay_mult: 0
  }
  param {
    lr_mult: 0
    decay_mult: 0
  }
}
layer {
  name: "conv3_2/dw/scale"
  type: "Scale"
  bottom: "conv3_2/dw"
  top: "conv3_2/dw"
  scale_param {
    filler {
      value: 1
    }
    bias_term: true
    bias_filler {
      value: 0
    }
  }
}
layer {
  name: "relu3_2/dw"
  type: "ReLU"
  bottom: "conv3_2/dw"
  top: "conv3_2/dw"
}
layer {
  name: "conv3_2/sep"
  type: "Convolution"
  bottom: "conv3_2/dw"
  top: "conv3_2/sep"
  param {
    lr_mult: 1
    decay_mult: 1
  }
  convolution_param {
    num_output: 256
    bias_term: false
    pad: 0
    kernel_size: 1
    stride: 1
    weight_filler {
      type: "msra"
    }
  }
}
layer {
  name: "conv3_2/sep/bn"
  type: "BatchNorm"
  bottom: "conv3_2/sep"
  top: "conv3_2/sep"
  param {
    lr_mult: 0
    decay_mult: 0
  }
  param {
    lr_mult: 0
    decay_mult: 0
  }
  param {
    lr_mult: 0
    decay_mult: 0
  }
}
layer {
  name: "conv3_2/sep/scale"
  type: "Scale"
  bottom: "conv3_2/sep"
  top: "conv3_2/sep"
  scale_param {
    filler {
      value: 1
    }
    bias_term: true
    bias_filler {
      value: 0
    }
  }
}
layer {
  name: "relu3_2/sep"
  type: "ReLU"
  bottom: "conv3_2/sep"
  top: "conv3_2/sep"
}
layer {
  name: "conv4_1/dw"
  type: "Convolution"
  bottom: "conv3_2/sep"
  top: "conv4_1/dw"
  param {
    lr_mult: 1
    decay_mult: 1
  }
  convolution_param {
    num_output: 256
    bias_term: false
    pad: 1
    kernel_size: 3
    group: 256
    stride: 1
    weight_filler {
      type: "msra"
    }
    engine: CAFFE
  }
}
layer {
  name: "conv4_1/dw/bn"
  type: "BatchNorm"
  bottom: "conv4_1/dw"
  top: "conv4_1/dw"
  param {
    lr_mult: 0
    decay_mult: 0
  }
  param {
    lr_mult: 0
    decay_mult: 0
  }
  param {
    lr_mult: 0
    decay_mult: 0
  }
}
layer {
  name: "conv4_1/dw/scale"
  type: "Scale"
  bottom: "conv4_1/dw"
  top: "conv4_1/dw"
  scale_param {
    filler {
      value: 1
    }
    bias_term: true
    bias_filler {
      value: 0
    }
  }
}
layer {
  name: "relu4_1/dw"
  type: "ReLU"
  bottom: "conv4_1/dw"
  top: "conv4_1/dw"
}
layer {
  name: "conv4_1/sep"
  type: "Convolution"
  bottom: "conv4_1/dw"
  top: "conv4_1/sep"
  param {
    lr_mult: 1
    decay_mult: 1
  }
  convolution_param {
    num_output: 256
    bias_term: false
    pad: 0
    kernel_size: 1
    stride: 1
    weight_filler {
      type: "msra"
    }
  }
}
layer {
  name: "conv4_1/sep/bn"
  type: "BatchNorm"
  bottom: "conv4_1/sep"
  top: "conv4_1/sep"
  param {
    lr_mult: 0
    decay_mult: 0
  }
  param {
    lr_mult: 0
    decay_mult: 0
  }
  param {
    lr_mult: 0
    decay_mult: 0
  }
}
layer {
  name: "conv4_1/sep/scale"
  type: "Scale"
  bottom: "conv4_1/sep"
  top: "conv4_1/sep"
  scale_param {
    filler {
      value: 1
    }
    bias_term: true
    bias_filler {
      value: 0
    }
  }
}
layer {
  name: "relu4_1/sep"
  type: "ReLU"
  bottom: "conv4_1/sep"
  top: "conv4_1/sep"
}
layer {
  name: "conv4_2/dw"
  type: "Convolution"
  bottom: "conv4_1/sep"
  top: "conv4_2/dw"
  param {
    lr_mult: 1
    decay_mult: 1
  }
  convolution_param {
    num_output: 256
    bias_term: false
    pad: 1
    kernel_size: 3
    group: 256
    stride: 2
    weight_filler {
      type: "msra"
    }
    engine: CAFFE
  }
}
layer {
  name: "conv4_2/dw/bn"
  type: "BatchNorm"
  bottom: "conv4_2/dw"
  top: "conv4_2/dw"
  param {
    lr_mult: 0
    decay_mult: 0
  }
  param {
    lr_mult: 0
    decay_mult: 0
  }
  param {
    lr_mult: 0
    decay_mult: 0
  }
}
layer {
  name: "conv4_2/dw/scale"
  type: "Scale"
  bottom: "conv4_2/dw"
  top: "conv4_2/dw"
  scale_param {
    filler {
      value: 1
    }
    bias_term: true
    bias_filler {
      value: 0
    }
  }
}
layer {
  name: "relu4_2/dw"
  type: "ReLU"
  bottom: "conv4_2/dw"
  top: "conv4_2/dw"
}
layer {
  name: "conv4_2/sep"
  type: "Convolution"
  bottom: "conv4_2/dw"
  top: "conv4_2/sep"
  param {
    lr_mult: 1
    decay_mult: 1
  }
  convolution_param {
    num_output: 512
    bias_term: false
    pad: 0
    kernel_size: 1
    stride: 1
    weight_filler {
      type: "msra"
    }
  }
}
layer {
  name: "conv4_2/sep/bn"
  type: "BatchNorm"
  bottom: "conv4_2/sep"
  top: "conv4_2/sep"
  param {
    lr_mult: 0
    decay_mult: 0
  }
  param {
    lr_mult: 0
    decay_mult: 0
  }
  param {
    lr_mult: 0
    decay_mult: 0
  }
}
layer {
  name: "conv4_2/sep/scale"
  type: "Scale"
  bottom: "conv4_2/sep"
  top: "conv4_2/sep"
  scale_param {
    filler {
      value: 1
    }
    bias_term: true
    bias_filler {
      value: 0
    }
  }
}
layer {
  name: "relu4_2/sep"
  type: "ReLU"
  bottom: "conv4_2/sep"
  top: "conv4_2/sep"
}
layer {
  name: "conv5_1/dw"
  type: "Convolution"
  bottom: "conv4_2/sep"
  top: "conv5_1/dw"
  param {
    lr_mult: 1
    decay_mult: 1
  }
  convolution_param {
    num_output: 512
    bias_term: false
    pad: 1
    kernel_size: 3
    group: 512
    stride: 1
    weight_filler {
      type: "msra"
    }
    engine: CAFFE
  }
}
layer {
  name: "conv5_1/dw/bn"
  type: "BatchNorm"
  bottom: "conv5_1/dw"
  top: "conv5_1/dw"
  param {
    lr_mult: 0
    decay_mult: 0
  }
  param {
    lr_mult: 0
    decay_mult: 0
  }
  param {
    lr_mult: 0
    decay_mult: 0
  }
}
layer {
  name: "conv5_1/dw/scale"
  type: "Scale"
  bottom: "conv5_1/dw"
  top: "conv5_1/dw"
  scale_param {
    filler {
      value: 1
    }
    bias_term: true
    bias_filler {
      value: 0
    }
  }
}
layer {
  name: "relu5_1/dw"
  type: "ReLU"
  bottom: "conv5_1/dw"
  top: "conv5_1/dw"
}
layer {
  name: "conv5_1/sep"
  type: "Convolution"
  bottom: "conv5_1/dw"
  top: "conv5_1/sep"
  param {
    lr_mult: 1
    decay_mult: 1
  }
  convolution_param {
    num_output: 512
    bias_term: false
    pad: 0
    kernel_size: 1
    stride: 1
    weight_filler {
      type: "msra"
    }
  }
}
layer {
  name: "conv5_1/sep/bn"
  type: "BatchNorm"
  bottom: "conv5_1/sep"
  top: "conv5_1/sep"
  param {
    lr_mult: 0
    decay_mult: 0
  }
  param {
    lr_mult: 0
    decay_mult: 0
  }
  param {
    lr_mult: 0
    decay_mult: 0
  }
}
layer {
  name: "conv5_1/sep/scale"
  type: "Scale"
  bottom: "conv5_1/sep"
  top: "conv5_1/sep"
  scale_param {
    filler {
      value: 1
    }
    bias_term: true
    bias_filler {
      value: 0
    }
  }
}
layer {
  name: "relu5_1/sep"
  type: "ReLU"
  bottom: "conv5_1/sep"
  top: "conv5_1/sep"
}
layer {
  name: "conv5_2/dw"
  type: "Convolution"
  bottom: "conv5_1/sep"
  top: "conv5_2/dw"
  param {
    lr_mult: 1
    decay_mult: 1
  }
  convolution_param {
    num_output: 512
    bias_term: false
    pad: 1
    kernel_size: 3
    group: 512
    stride: 1
    weight_filler {
      type: "msra"
    }
    engine: CAFFE
  }
}
layer {
  name: "conv5_2/dw/bn"
  type: "BatchNorm"
  bottom: "conv5_2/dw"
  top: "conv5_2/dw"
  param {
    lr_mult: 0
    decay_mult: 0
  }
  param {
    lr_mult: 0
    decay_mult: 0
  }
  param {
    lr_mult: 0
    decay_mult: 0
  }
}
layer {
  name: "conv5_2/dw/scale"
  type: "Scale"
  bottom: "conv5_2/dw"
  top: "conv5_2/dw"
  scale_param {
    filler {
      value: 1
    }
    bias_term: true
    bias_filler {
      value: 0
    }
  }
}
layer {
  name: "relu5_2/dw"
  type: "ReLU"
  bottom: "conv5_2/dw"
  top: "conv5_2/dw"
}
layer {
  name: "conv5_2/sep"
  type: "Convolution"
  bottom: "conv5_2/dw"
  top: "conv5_2/sep"
  param {
    lr_mult: 1
    decay_mult: 1
  }
  convolution_param {
    num_output: 512
    bias_term: false
    pad: 0
    kernel_size: 1
    stride: 1
    weight_filler {
      type: "msra"
    }
  }
}
layer {
  name: "conv5_2/sep/bn"
  type: "BatchNorm"
  bottom: "conv5_2/sep"
  top: "conv5_2/sep"
  param {
    lr_mult: 0
    decay_mult: 0
  }
  param {
    lr_mult: 0
    decay_mult: 0
  }
  param {
    lr_mult: 0
    decay_mult: 0
  }
}
layer {
  name: "conv5_2/sep/scale"
  type: "Scale"
  bottom: "conv5_2/sep"
  top: "conv5_2/sep"
  scale_param {
    filler {
      value: 1
    }
    bias_term: true
    bias_filler {
      value: 0
    }
  }
}
layer {
  name: "relu5_2/sep"
  type: "ReLU"
  bottom: "conv5_2/sep"
  top: "conv5_2/sep"
}
layer {
  name: "conv5_3/dw"
  type: "Convolution"
  bottom: "conv5_2/sep"
  top: "conv5_3/dw"
  param {
    lr_mult: 1
    decay_mult: 1
  }
  convolution_param {
    num_output: 512
    bias_term: false
    pad: 1
    kernel_size: 3
    group: 512
    stride: 1
    weight_filler {
      type: "msra"
    }
    engine: CAFFE
  }
}
layer {
  name: "conv5_3/dw/bn"
  type: "BatchNorm"
  bottom: "conv5_3/dw"
  top: "conv5_3/dw"
  param {
    lr_mult: 0
    decay_mult: 0
  }
  param {
    lr_mult: 0
    decay_mult: 0
  }
  param {
    lr_mult: 0
    decay_mult: 0
  }
}
layer {
  name: "conv5_3/dw/scale"
  type: "Scale"
  bottom: "conv5_3/dw"
  top: "conv5_3/dw"
  scale_param {
    filler {
      value: 1
    }
    bias_term: true
    bias_filler {
      value: 0
    }
  }
}
layer {
  name: "relu5_3/dw"
  type: "ReLU"
  bottom: "conv5_3/dw"
  top: "conv5_3/dw"
}
layer {
  name: "conv5_3/sep"
  type: "Convolution"
  bottom: "conv5_3/dw"
  top: "conv5_3/sep"
  param {
    lr_mult: 1
    decay_mult: 1
  }
  convolution_param {
    num_output: 512
    bias_term: false
    pad: 0
    kernel_size: 1
    stride: 1
    weight_filler {
      type: "msra"
    }
  }
}
layer {
  name: "conv5_3/sep/bn"
  type: "BatchNorm"
  bottom: "conv5_3/sep"
  top: "conv5_3/sep"
  param {
    lr_mult: 0
    decay_mult: 0
  }
  param {
    lr_mult: 0
    decay_mult: 0
  }
  param {
    lr_mult: 0
    decay_mult: 0
  }
}
layer {
  name: "conv5_3/sep/scale"
  type: "Scale"
  bottom: "conv5_3/sep"
  top: "conv5_3/sep"
  scale_param {
    filler {
      value: 1
    }
    bias_term: true
    bias_filler {
      value: 0
    }
  }
}
layer {
  name: "relu5_3/sep"
  type: "ReLU"
  bottom: "conv5_3/sep"
  top: "conv5_3/sep"
}
layer {
  name: "conv5_4/dw"
  type: "Convolution"
  bottom: "conv5_3/sep"
  top: "conv5_4/dw"
  param {
    lr_mult: 1
    decay_mult: 1
  }
  convolution_param {
    num_output: 512
    bias_term: false
    pad: 1
    kernel_size: 3
    group: 512
    stride: 1
    weight_filler {
      type: "msra"
    }
    engine: CAFFE
  }
}
layer {
  name: "conv5_4/dw/bn"
  type: "BatchNorm"
  bottom: "conv5_4/dw"
  top: "conv5_4/dw"
  param {
    lr_mult: 0
    decay_mult: 0
  }
  param {
    lr_mult: 0
    decay_mult: 0
  }
  param {
    lr_mult: 0
    decay_mult: 0
  }
}
layer {
  name: "conv5_4/dw/scale"
  type: "Scale"
  bottom: "conv5_4/dw"
  top: "conv5_4/dw"
  scale_param {
    filler {
      value: 1
    }
    bias_term: true
    bias_filler {
      value: 0
    }
  }
}
layer {
  name: "relu5_4/dw"
  type: "ReLU"
  bottom: "conv5_4/dw"
  top: "conv5_4/dw"
}
layer {
  name: "conv5_4/sep"
  type: "Convolution"
  bottom: "conv5_4/dw"
  top: "conv5_4/sep"
  param {
    lr_mult: 1
    decay_mult: 1
  }
  convolution_param {
    num_output: 512
    bias_term: false
    pad: 0
    kernel_size: 1
    stride: 1
    weight_filler {
      type: "msra"
    }
  }
}
layer {
  name: "conv5_4/sep/bn"
  type: "BatchNorm"
  bottom: "conv5_4/sep"
  top: "conv5_4/sep"
  param {
    lr_mult: 0
    decay_mult: 0
  }
  param {
    lr_mult: 0
    decay_mult: 0
  }
  param {
    lr_mult: 0
    decay_mult: 0
  }
}
layer {
  name: "conv5_4/sep/scale"
  type: "Scale"
  bottom: "conv5_4/sep"
  top: "conv5_4/sep"
  scale_param {
    filler {
      value: 1
    }
    bias_term: true
    bias_filler {
      value: 0
    }
  }
}
layer {
  name: "relu5_4/sep"
  type: "ReLU"
  bottom: "conv5_4/sep"
  top: "conv5_4/sep"
}
layer {
  name: "conv5_5/dw"
  type: "Convolution"
  bottom: "conv5_4/sep"
  top: "conv5_5/dw"
  param {
    lr_mult: 1
    decay_mult: 1
  }
  convolution_param {
    num_output: 512
    bias_term: false
    pad: 1
    kernel_size: 3
    group: 512
    stride: 1
    weight_filler {
      type: "msra"
    }
    engine: CAFFE
  }
}
layer {
  name: "conv5_5/dw/bn"
  type: "BatchNorm"
  bottom: "conv5_5/dw"
  top: "conv5_5/dw"
  param {
    lr_mult: 0
    decay_mult: 0
  }
  param {
    lr_mult: 0
    decay_mult: 0
  }
  param {
    lr_mult: 0
    decay_mult: 0
  }
}
layer {
  name: "conv5_5/dw/scale"
  type: "Scale"
  bottom: "conv5_5/dw"
  top: "conv5_5/dw"
  scale_param {
    filler {
      value: 1
    }
    bias_term: true
    bias_filler {
      value: 0
    }
  }
}
layer {
  name: "relu5_5/dw"
  type: "ReLU"
  bottom: "conv5_5/dw"
  top: "conv5_5/dw"
}
layer {
  name: "conv5_5/sep"
  type: "Convolution"
  bottom: "conv5_5/dw"
  top: "conv5_5/sep"
  param {
    lr_mult: 1
    decay_mult: 1
  }
  convolution_param {
    num_output: 512
    bias_term: false
    pad: 0
    kernel_size: 1
    stride: 1
    weight_filler {
      type: "msra"
    }
  }
}
layer {
  name: "conv5_5/sep/bn"
  type: "BatchNorm"
  bottom: "conv5_5/sep"
  top: "conv5_5/sep"
  param {
    lr_mult: 0
    decay_mult: 0
  }
  param {
    lr_mult: 0
    decay_mult: 0
  }
  param {
    lr_mult: 0
    decay_mult: 0
  }
}
layer {
  name: "conv5_5/sep/scale"
  type: "Scale"
  bottom: "conv5_5/sep"
  top: "conv5_5/sep"
  scale_param {
    filler {
      value: 1
    }
    bias_term: true
    bias_filler {
      value: 0
    }
  }
}
layer {
  name: "relu5_5/sep"
  type: "ReLU"
  bottom: "conv5_5/sep"
  top: "conv5_5/sep"
}
layer {
  name: "conv5_6/dw"
  type: "Convolution"
  bottom: "conv5_5/sep"
  top: "conv5_6/dw"
  param {
    lr_mult: 1
    decay_mult: 1
  }
  convolution_param {
    num_output: 512
    bias_term: false
    pad: 1
    kernel_size: 3
    group: 512
    stride: 2
    weight_filler {
      type: "msra"
    }
    engine: CAFFE
  }
}
layer {
  name: "conv5_6/dw/bn"
  type: "BatchNorm"
  bottom: "conv5_6/dw"
  top: "conv5_6/dw"
  param {
    lr_mult: 0
    decay_mult: 0
  }
  param {
    lr_mult: 0
    decay_mult: 0
  }
  param {
    lr_mult: 0
    decay_mult: 0
  }
}
layer {
  name: "conv5_6/dw/scale"
  type: "Scale"
  bottom: "conv5_6/dw"
  top: "conv5_6/dw"
  scale_param {
    filler {
      value: 1
    }
    bias_term: true
    bias_filler {
      value: 0
    }
  }
}
layer {
  name: "relu5_6/dw"
  type: "ReLU"
  bottom: "conv5_6/dw"
  top: "conv5_6/dw"
}
layer {
  name: "conv5_6/sep"
  type: "Convolution"
  bottom: "conv5_6/dw"
  top: "conv5_6/sep"
  param {
    lr_mult: 1
    decay_mult: 1
  }
  convolution_param {
    num_output: 1024
    bias_term: false
    pad: 0
    kernel_size: 1
    stride: 1
    weight_filler {
      type: "msra"
    }
  }
}
layer {
  name: "conv5_6/sep/bn"
  type: "BatchNorm"
  bottom: "conv5_6/sep"
  top: "conv5_6/sep"
  param {
    lr_mult: 0
    decay_mult: 0
  }
  param {
    lr_mult: 0
    decay_mult: 0
  }
  param {
    lr_mult: 0
    decay_mult: 0
  }
}
layer {
  name: "conv5_6/sep/scale"
  type: "Scale"
  bottom: "conv5_6/sep"
  top: "conv5_6/sep"
  scale_param {
    filler {
      value: 1
    }
    bias_term: true
    bias_filler {
      value: 0
    }
  }
}
layer {
  name: "relu5_6/sep"
  type: "ReLU"
  bottom: "conv5_6/sep"
  top: "conv5_6/sep"
}
layer {
  name: "conv6/dw"
  type: "Convolution"
  bottom: "conv5_6/sep"
  top: "conv6/dw"
  param {
    lr_mult: 1
    decay_mult: 1
  }
  convolution_param {
    num_output: 1024
    bias_term: false
    pad: 1
    kernel_size: 3
    group: 1024
    stride: 1
    weight_filler {
      type: "msra"
    }
    engine: CAFFE
  }
}
layer {
  name: "conv6/dw/bn"
  type: "BatchNorm"
  bottom: "conv6/dw"
  top: "conv6/dw"
  param {
    lr_mult: 0
    decay_mult: 0
  }
  param {
    lr_mult: 0
    decay_mult: 0
  }
  param {
    lr_mult: 0
    decay_mult: 0
  }
}
layer {
  name: "conv6/dw/scale"
  type: "Scale"
  bottom: "conv6/dw"
  top: "conv6/dw"
  scale_param {
    filler {
      value: 1
    }
    bias_term: true
    bias_filler {
      value: 0
    }
  }
}
layer {
  name: "relu6/dw"
  type: "ReLU"
  bottom: "conv6/dw"
  top: "conv6/dw"
}
layer {
  name: "conv6/sep"
  type: "Convolution"
  bottom: "conv6/dw"
  top: "conv6/sep"
  param {
    lr_mult: 1
    decay_mult: 1
  }
  convolution_param {
    num_output: 1024
    bias_term: false
    pad: 0
    kernel_size: 1
    stride: 1
    weight_filler {
      type: "msra"
    }
  }
}
layer {
  name: "conv6/sep/bn"
  type: "BatchNorm"
  bottom: "conv6/sep"
  top: "conv6/sep"
  param {
    lr_mult: 0
    decay_mult: 0
  }
  param {
    lr_mult: 0
    decay_mult: 0
  }
  param {
    lr_mult: 0
    decay_mult: 0
  }
}
layer {
  name: "conv6/sep/scale"
  type: "Scale"
  bottom: "conv6/sep"
  top: "conv6/sep"
  scale_param {
    filler {
      value: 1
    }
    bias_term: true
    bias_filler {
      value: 0
    }
  }
}
layer {
  name: "relu6/sep"
  type: "ReLU"
  bottom: "conv6/sep"
  top: "conv6/sep"
}
layer {
  name: "pool6"
  type: "Pooling"
  bottom: "conv6/sep"
  top: "pool6"
  pooling_param {
    pool: AVE
    global_pooling: true
  }
}
layer {
  name: "fc7"
  type: "Convolution"
  bottom: "pool6"
  top: "fc7"
  param {
    lr_mult: 1
    decay_mult: 1
  }
  param {
    lr_mult: 2
    decay_mult: 0
  }
  convolution_param {
    num_output: 1000
    kernel_size: 1
    weight_filler {
      type: "msra"
    }
    bias_filler {
      type: "constant"
      value: 0
    }
  }
}
layer {
  name: "loss"
  type: "SoftmaxWithLoss"
  bottom: "fc7"
  bottom: "label"
  top: "loss"
  loss_weight: 1
}
I0613 09:34:19.504737 35302 layer_factory.hpp:74] Creating layer data
I0613 09:34:19.504758 35302 net.cpp:99] Creating Layer data
I0613 09:34:19.504766 35302 net.cpp:435] data -> data
I0613 09:34:19.504787 35302 net.cpp:435] data -> label
I0613 09:34:19.504797 35302 net.cpp:163] Setting up data
I0613 09:34:19.505216 35302 db_lmdb.cpp:22] Opened lmdb examples/imagenet/ilsvrc12_train_lmdb
I0613 09:34:19.505558 35302 data_layer.cpp:55] output data size: 48,3,224,224
I0613 09:34:19.505632 35302 net.cpp:170] Top shape: 48 3 224 224 (7225344)
I0613 09:34:19.505640 35302 net.cpp:170] Top shape: 48 (48)
I0613 09:34:19.505643 35302 layer_factory.hpp:74] Creating layer conv1
I0613 09:34:19.505655 35302 net.cpp:99] Creating Layer conv1
I0613 09:34:19.505659 35302 net.cpp:479] conv1 <- data
I0613 09:34:19.505667 35302 net.cpp:130] This layer is inheriting previous layer's sync mode: 1
I0613 09:34:19.505674 35302 net.cpp:435] conv1 -> conv1
I0613 09:34:19.505683 35302 net.cpp:163] Setting up conv1
I0613 09:34:21.788564 35302 net.cpp:170] Top shape: 48 32 112 112 (19267584)
I0613 09:34:21.788619 35302 layer_factory.hpp:74] Creating layer conv1/bn
I0613 09:34:21.788655 35302 net.cpp:99] Creating Layer conv1/bn
I0613 09:34:21.788662 35302 net.cpp:479] conv1/bn <- conv1
I0613 09:34:21.788676 35302 net.cpp:130] This layer is inheriting previous layer's sync mode: 1
I0613 09:34:21.788684 35302 net.cpp:424] conv1/bn -> conv1 (in-place)
I0613 09:34:21.788715 35302 net.cpp:163] Setting up conv1/bn
I0613 09:34:21.788784 35302 net.cpp:170] Top shape: 48 32 112 112 (19267584)
I0613 09:34:21.788807 35302 layer_factory.hpp:74] Creating layer conv1/scale
I0613 09:34:21.788825 35302 net.cpp:99] Creating Layer conv1/scale
I0613 09:34:21.788830 35302 net.cpp:479] conv1/scale <- conv1
I0613 09:34:21.788836 35302 net.cpp:130] This layer is inheriting previous layer's sync mode: 1
I0613 09:34:21.788843 35302 net.cpp:424] conv1/scale -> conv1 (in-place)
I0613 09:34:21.788854 35302 net.cpp:163] Setting up conv1/scale
I0613 09:34:21.788877 35302 layer_factory.hpp:74] Creating layer conv1/scale
I0613 09:34:21.789001 35302 net.cpp:170] Top shape: 48 32 112 112 (19267584)
I0613 09:34:21.789017 35302 layer_factory.hpp:74] Creating layer relu1
I0613 09:34:21.789027 35302 net.cpp:99] Creating Layer relu1
I0613 09:34:21.789032 35302 net.cpp:479] relu1 <- conv1
I0613 09:34:21.789039 35302 net.cpp:130] This layer is inheriting previous layer's sync mode: 1
I0613 09:34:21.789044 35302 net.cpp:424] relu1 -> conv1 (in-place)
I0613 09:34:21.789052 35302 net.cpp:163] Setting up relu1
I0613 09:34:21.832392 35302 net.cpp:170] Top shape: 48 32 112 112 (19267584)
I0613 09:34:21.832419 35302 layer_factory.hpp:74] Creating layer conv2_1/dw
I0613 09:34:21.832438 35302 net.cpp:99] Creating Layer conv2_1/dw
I0613 09:34:21.832443 35302 net.cpp:479] conv2_1/dw <- conv1
I0613 09:34:21.832450 35302 net.cpp:130] This layer is inheriting previous layer's sync mode: 1
I0613 09:34:21.832460 35302 net.cpp:435] conv2_1/dw -> conv2_1/dw
I0613 09:34:21.832482 35302 net.cpp:163] Setting up conv2_1/dw
I0613 09:34:21.832515 35302 net.cpp:170] Top shape: 48 32 112 112 (19267584)
I0613 09:34:21.832525 35302 layer_factory.hpp:74] Creating layer conv2_1/dw/bn
I0613 09:34:21.832536 35302 net.cpp:99] Creating Layer conv2_1/dw/bn
I0613 09:34:21.832566 35302 net.cpp:479] conv2_1/dw/bn <- conv2_1/dw
I0613 09:34:21.832571 35302 net.cpp:130] This layer is inheriting previous layer's sync mode: 1
I0613 09:34:21.832579 35302 net.cpp:424] conv2_1/dw/bn -> conv2_1/dw (in-place)
I0613 09:34:21.832587 35302 net.cpp:163] Setting up conv2_1/dw/bn
I0613 09:34:21.832631 35302 net.cpp:170] Top shape: 48 32 112 112 (19267584)
I0613 09:34:21.832653 35302 layer_factory.hpp:74] Creating layer conv2_1/dw/scale
I0613 09:34:21.832664 35302 net.cpp:99] Creating Layer conv2_1/dw/scale
I0613 09:34:21.832667 35302 net.cpp:479] conv2_1/dw/scale <- conv2_1/dw
I0613 09:34:21.832672 35302 net.cpp:130] This layer is inheriting previous layer's sync mode: 1
I0613 09:34:21.832679 35302 net.cpp:424] conv2_1/dw/scale -> conv2_1/dw (in-place)
I0613 09:34:21.832686 35302 net.cpp:163] Setting up conv2_1/dw/scale
I0613 09:34:21.832710 35302 layer_factory.hpp:74] Creating layer conv2_1/dw/scale
I0613 09:34:21.832804 35302 net.cpp:170] Top shape: 48 32 112 112 (19267584)
I0613 09:34:21.832816 35302 layer_factory.hpp:74] Creating layer relu2_1/dw
I0613 09:34:21.832828 35302 net.cpp:99] Creating Layer relu2_1/dw
I0613 09:34:21.832832 35302 net.cpp:479] relu2_1/dw <- conv2_1/dw
I0613 09:34:21.832837 35302 net.cpp:130] This layer is inheriting previous layer's sync mode: 1
I0613 09:34:21.832841 35302 net.cpp:424] relu2_1/dw -> conv2_1/dw (in-place)
I0613 09:34:21.832846 35302 net.cpp:163] Setting up relu2_1/dw
I0613 09:34:21.833076 35302 net.cpp:170] Top shape: 48 32 112 112 (19267584)
I0613 09:34:21.833086 35302 layer_factory.hpp:74] Creating layer conv2_1/sep
I0613 09:34:21.833097 35302 net.cpp:99] Creating Layer conv2_1/sep
I0613 09:34:21.833101 35302 net.cpp:479] conv2_1/sep <- conv2_1/dw
I0613 09:34:21.833107 35302 net.cpp:130] This layer is inheriting previous layer's sync mode: 1
I0613 09:34:21.833112 35302 net.cpp:435] conv2_1/sep -> conv2_1/sep
I0613 09:34:21.833123 35302 net.cpp:163] Setting up conv2_1/sep
I0613 09:34:22.711062 35302 net.cpp:170] Top shape: 48 64 112 112 (38535168)
I0613 09:34:22.711096 35302 layer_factory.hpp:74] Creating layer conv2_1/sep/bn
I0613 09:34:22.711108 35302 net.cpp:99] Creating Layer conv2_1/sep/bn
I0613 09:34:22.711114 35302 net.cpp:479] conv2_1/sep/bn <- conv2_1/sep
I0613 09:34:22.711122 35302 net.cpp:130] This layer is inheriting previous layer's sync mode: 1
I0613 09:34:22.711127 35302 net.cpp:424] conv2_1/sep/bn -> conv2_1/sep (in-place)
I0613 09:34:22.711134 35302 net.cpp:163] Setting up conv2_1/sep/bn
I0613 09:34:22.711179 35302 net.cpp:170] Top shape: 48 64 112 112 (38535168)
I0613 09:34:22.711191 35302 layer_factory.hpp:74] Creating layer conv2_1/sep/scale
I0613 09:34:22.711200 35302 net.cpp:99] Creating Layer conv2_1/sep/scale
I0613 09:34:22.711203 35302 net.cpp:479] conv2_1/sep/scale <- conv2_1/sep
I0613 09:34:22.711206 35302 net.cpp:130] This layer is inheriting previous layer's sync mode: 1
I0613 09:34:22.711210 35302 net.cpp:424] conv2_1/sep/scale -> conv2_1/sep (in-place)
I0613 09:34:22.711215 35302 net.cpp:163] Setting up conv2_1/sep/scale
I0613 09:34:22.711225 35302 layer_factory.hpp:74] Creating layer conv2_1/sep/scale
I0613 09:34:22.711300 35302 net.cpp:170] Top shape: 48 64 112 112 (38535168)
I0613 09:34:22.711313 35302 layer_factory.hpp:74] Creating layer relu2_1/sep
I0613 09:34:22.711318 35302 net.cpp:99] Creating Layer relu2_1/sep
I0613 09:34:22.711321 35302 net.cpp:479] relu2_1/sep <- conv2_1/sep
I0613 09:34:22.711324 35302 net.cpp:130] This layer is inheriting previous layer's sync mode: 1
I0613 09:34:22.711326 35302 net.cpp:424] relu2_1/sep -> conv2_1/sep (in-place)
I0613 09:34:22.711330 35302 net.cpp:163] Setting up relu2_1/sep
I0613 09:34:22.749773 35302 net.cpp:170] Top shape: 48 64 112 112 (38535168)
I0613 09:34:22.749801 35302 layer_factory.hpp:74] Creating layer conv2_2/dw
I0613 09:34:22.749825 35302 net.cpp:99] Creating Layer conv2_2/dw
I0613 09:34:22.749830 35302 net.cpp:479] conv2_2/dw <- conv2_1/sep
I0613 09:34:22.749836 35302 net.cpp:130] This layer is inheriting previous layer's sync mode: 1
I0613 09:34:22.749871 35302 net.cpp:435] conv2_2/dw -> conv2_2/dw
I0613 09:34:22.749882 35302 net.cpp:163] Setting up conv2_2/dw
I0613 09:34:22.749914 35302 net.cpp:170] Top shape: 48 64 56 56 (9633792)
I0613 09:34:22.749922 35302 layer_factory.hpp:74] Creating layer conv2_2/dw/bn
I0613 09:34:22.749930 35302 net.cpp:99] Creating Layer conv2_2/dw/bn
I0613 09:34:22.749933 35302 net.cpp:479] conv2_2/dw/bn <- conv2_2/dw
I0613 09:34:22.749936 35302 net.cpp:130] This layer is inheriting previous layer's sync mode: 1
I0613 09:34:22.749941 35302 net.cpp:424] conv2_2/dw/bn -> conv2_2/dw (in-place)
I0613 09:34:22.749945 35302 net.cpp:163] Setting up conv2_2/dw/bn
I0613 09:34:22.749963 35302 net.cpp:170] Top shape: 48 64 56 56 (9633792)
I0613 09:34:22.749970 35302 layer_factory.hpp:74] Creating layer conv2_2/dw/scale
I0613 09:34:22.749979 35302 net.cpp:99] Creating Layer conv2_2/dw/scale
I0613 09:34:22.749981 35302 net.cpp:479] conv2_2/dw/scale <- conv2_2/dw
I0613 09:34:22.749984 35302 net.cpp:130] This layer is inheriting previous layer's sync mode: 1
I0613 09:34:22.749989 35302 net.cpp:424] conv2_2/dw/scale -> conv2_2/dw (in-place)
I0613 09:34:22.749991 35302 net.cpp:163] Setting up conv2_2/dw/scale
I0613 09:34:22.750001 35302 layer_factory.hpp:74] Creating layer conv2_2/dw/scale
I0613 09:34:22.750025 35302 net.cpp:170] Top shape: 48 64 56 56 (9633792)
I0613 09:34:22.750032 35302 layer_factory.hpp:74] Creating layer relu2_2/dw
I0613 09:34:22.750041 35302 net.cpp:99] Creating Layer relu2_2/dw
I0613 09:34:22.750044 35302 net.cpp:479] relu2_2/dw <- conv2_2/dw
I0613 09:34:22.750046 35302 net.cpp:130] This layer is inheriting previous layer's sync mode: 1
I0613 09:34:22.750051 35302 net.cpp:424] relu2_2/dw -> conv2_2/dw (in-place)
I0613 09:34:22.750053 35302 net.cpp:163] Setting up relu2_2/dw
I0613 09:34:22.750231 35302 net.cpp:170] Top shape: 48 64 56 56 (9633792)
I0613 09:34:22.750239 35302 layer_factory.hpp:74] Creating layer conv2_2/sep
I0613 09:34:22.750247 35302 net.cpp:99] Creating Layer conv2_2/sep
I0613 09:34:22.750252 35302 net.cpp:479] conv2_2/sep <- conv2_2/dw
I0613 09:34:22.750254 35302 net.cpp:130] This layer is inheriting previous layer's sync mode: 1
I0613 09:34:22.750258 35302 net.cpp:435] conv2_2/sep -> conv2_2/sep
I0613 09:34:22.750264 35302 net.cpp:163] Setting up conv2_2/sep
I0613 09:34:23.210794 35302 net.cpp:170] Top shape: 48 128 56 56 (19267584)
I0613 09:34:23.210827 35302 layer_factory.hpp:74] Creating layer conv2_2/sep/bn
I0613 09:34:23.210842 35302 net.cpp:99] Creating Layer conv2_2/sep/bn
I0613 09:34:23.210847 35302 net.cpp:479] conv2_2/sep/bn <- conv2_2/sep
I0613 09:34:23.210855 35302 net.cpp:130] This layer is inheriting previous layer's sync mode: 1
I0613 09:34:23.210860 35302 net.cpp:424] conv2_2/sep/bn -> conv2_2/sep (in-place)
I0613 09:34:23.210868 35302 net.cpp:163] Setting up conv2_2/sep/bn
I0613 09:34:23.210896 35302 net.cpp:170] Top shape: 48 128 56 56 (19267584)
I0613 09:34:23.210903 35302 layer_factory.hpp:74] Creating layer conv2_2/sep/scale
I0613 09:34:23.210912 35302 net.cpp:99] Creating Layer conv2_2/sep/scale
I0613 09:34:23.210916 35302 net.cpp:479] conv2_2/sep/scale <- conv2_2/sep
I0613 09:34:23.210921 35302 net.cpp:130] This layer is inheriting previous layer's sync mode: 1
I0613 09:34:23.210923 35302 net.cpp:424] conv2_2/sep/scale -> conv2_2/sep (in-place)
I0613 09:34:23.210928 35302 net.cpp:163] Setting up conv2_2/sep/scale
I0613 09:34:23.210937 35302 layer_factory.hpp:74] Creating layer conv2_2/sep/scale
I0613 09:34:23.210963 35302 net.cpp:170] Top shape: 48 128 56 56 (19267584)
I0613 09:34:23.210968 35302 layer_factory.hpp:74] Creating layer relu2_2/sep
I0613 09:34:23.210973 35302 net.cpp:99] Creating Layer relu2_2/sep
I0613 09:34:23.210976 35302 net.cpp:479] relu2_2/sep <- conv2_2/sep
I0613 09:34:23.210979 35302 net.cpp:130] This layer is inheriting previous layer's sync mode: 1
I0613 09:34:23.210984 35302 net.cpp:424] relu2_2/sep -> conv2_2/sep (in-place)
I0613 09:34:23.210988 35302 net.cpp:163] Setting up relu2_2/sep
I0613 09:34:23.217571 35302 net.cpp:170] Top shape: 48 128 56 56 (19267584)
I0613 09:34:23.217602 35302 layer_factory.hpp:74] Creating layer conv3_1/dw
I0613 09:34:23.217613 35302 net.cpp:99] Creating Layer conv3_1/dw
I0613 09:34:23.217617 35302 net.cpp:479] conv3_1/dw <- conv2_2/sep
I0613 09:34:23.217620 35302 net.cpp:130] This layer is inheriting previous layer's sync mode: 1
I0613 09:34:23.217625 35302 net.cpp:435] conv3_1/dw -> conv3_1/dw
I0613 09:34:23.217631 35302 net.cpp:163] Setting up conv3_1/dw
I0613 09:34:23.217669 35302 net.cpp:170] Top shape: 48 128 56 56 (19267584)
I0613 09:34:23.217677 35302 layer_factory.hpp:74] Creating layer conv3_1/dw/bn
I0613 09:34:23.217684 35302 net.cpp:99] Creating Layer conv3_1/dw/bn
I0613 09:34:23.217686 35302 net.cpp:479] conv3_1/dw/bn <- conv3_1/dw
I0613 09:34:23.217689 35302 net.cpp:130] This layer is inheriting previous layer's sync mode: 1
I0613 09:34:23.217694 35302 net.cpp:424] conv3_1/dw/bn -> conv3_1/dw (in-place)
I0613 09:34:23.217710 35302 net.cpp:163] Setting up conv3_1/dw/bn
I0613 09:34:23.217726 35302 net.cpp:170] Top shape: 48 128 56 56 (19267584)
I0613 09:34:23.217738 35302 layer_factory.hpp:74] Creating layer conv3_1/dw/scale
I0613 09:34:23.217746 35302 net.cpp:99] Creating Layer conv3_1/dw/scale
I0613 09:34:23.217748 35302 net.cpp:479] conv3_1/dw/scale <- conv3_1/dw
I0613 09:34:23.217751 35302 net.cpp:130] This layer is inheriting previous layer's sync mode: 1
I0613 09:34:23.217754 35302 net.cpp:424] conv3_1/dw/scale -> conv3_1/dw (in-place)
I0613 09:34:23.217757 35302 net.cpp:163] Setting up conv3_1/dw/scale
I0613 09:34:23.217764 35302 layer_factory.hpp:74] Creating layer conv3_1/dw/scale
I0613 09:34:23.217787 35302 net.cpp:170] Top shape: 48 128 56 56 (19267584)
I0613 09:34:23.217792 35302 layer_factory.hpp:74] Creating layer relu3_1/dw
I0613 09:34:23.217797 35302 net.cpp:99] Creating Layer relu3_1/dw
I0613 09:34:23.217799 35302 net.cpp:479] relu3_1/dw <- conv3_1/dw
I0613 09:34:23.217803 35302 net.cpp:130] This layer is inheriting previous layer's sync mode: 1
I0613 09:34:23.217804 35302 net.cpp:424] relu3_1/dw -> conv3_1/dw (in-place)
I0613 09:34:23.217808 35302 net.cpp:163] Setting up relu3_1/dw
I0613 09:34:23.217993 35302 net.cpp:170] Top shape: 48 128 56 56 (19267584)
I0613 09:34:23.218000 35302 layer_factory.hpp:74] Creating layer conv3_1/sep
I0613 09:34:23.218006 35302 net.cpp:99] Creating Layer conv3_1/sep
I0613 09:34:23.218009 35302 net.cpp:479] conv3_1/sep <- conv3_1/dw
I0613 09:34:23.218014 35302 net.cpp:130] This layer is inheriting previous layer's sync mode: 1
I0613 09:34:23.218019 35302 net.cpp:435] conv3_1/sep -> conv3_1/sep
I0613 09:34:23.218025 35302 net.cpp:163] Setting up conv3_1/sep
I0613 09:34:23.385473 35302 net.cpp:170] Top shape: 48 128 56 56 (19267584)
I0613 09:34:23.385505 35302 layer_factory.hpp:74] Creating layer conv3_1/sep/bn
I0613 09:34:23.385519 35302 net.cpp:99] Creating Layer conv3_1/sep/bn
I0613 09:34:23.385524 35302 net.cpp:479] conv3_1/sep/bn <- conv3_1/sep
I0613 09:34:23.385532 35302 net.cpp:130] This layer is inheriting previous layer's sync mode: 1
I0613 09:34:23.385537 35302 net.cpp:424] conv3_1/sep/bn -> conv3_1/sep (in-place)
I0613 09:34:23.385546 35302 net.cpp:163] Setting up conv3_1/sep/bn
I0613 09:34:23.385571 35302 net.cpp:170] Top shape: 48 128 56 56 (19267584)
I0613 09:34:23.385577 35302 layer_factory.hpp:74] Creating layer conv3_1/sep/scale
I0613 09:34:23.385586 35302 net.cpp:99] Creating Layer conv3_1/sep/scale
I0613 09:34:23.385589 35302 net.cpp:479] conv3_1/sep/scale <- conv3_1/sep
I0613 09:34:23.385591 35302 net.cpp:130] This layer is inheriting previous layer's sync mode: 1
I0613 09:34:23.385596 35302 net.cpp:424] conv3_1/sep/scale -> conv3_1/sep (in-place)
I0613 09:34:23.385602 35302 net.cpp:163] Setting up conv3_1/sep/scale
I0613 09:34:23.385612 35302 layer_factory.hpp:74] Creating layer conv3_1/sep/scale
I0613 09:34:23.385645 35302 net.cpp:170] Top shape: 48 128 56 56 (19267584)
I0613 09:34:23.385650 35302 layer_factory.hpp:74] Creating layer relu3_1/sep
I0613 09:34:23.385656 35302 net.cpp:99] Creating Layer relu3_1/sep
I0613 09:34:23.385658 35302 net.cpp:479] relu3_1/sep <- conv3_1/sep
I0613 09:34:23.385684 35302 net.cpp:130] This layer is inheriting previous layer's sync mode: 1
I0613 09:34:23.385687 35302 net.cpp:424] relu3_1/sep -> conv3_1/sep (in-place)
I0613 09:34:23.385692 35302 net.cpp:163] Setting up relu3_1/sep
I0613 09:34:23.385926 35302 net.cpp:170] Top shape: 48 128 56 56 (19267584)
I0613 09:34:23.385933 35302 layer_factory.hpp:74] Creating layer conv3_2/dw
I0613 09:34:23.385946 35302 net.cpp:99] Creating Layer conv3_2/dw
I0613 09:34:23.385948 35302 net.cpp:479] conv3_2/dw <- conv3_1/sep
I0613 09:34:23.385952 35302 net.cpp:130] This layer is inheriting previous layer's sync mode: 1
I0613 09:34:23.385956 35302 net.cpp:435] conv3_2/dw -> conv3_2/dw
I0613 09:34:23.385962 35302 net.cpp:163] Setting up conv3_2/dw
I0613 09:34:23.385993 35302 net.cpp:170] Top shape: 48 128 28 28 (4816896)
I0613 09:34:23.385999 35302 layer_factory.hpp:74] Creating layer conv3_2/dw/bn
I0613 09:34:23.386003 35302 net.cpp:99] Creating Layer conv3_2/dw/bn
I0613 09:34:23.386006 35302 net.cpp:479] conv3_2/dw/bn <- conv3_2/dw
I0613 09:34:23.386009 35302 net.cpp:130] This layer is inheriting previous layer's sync mode: 1
I0613 09:34:23.386014 35302 net.cpp:424] conv3_2/dw/bn -> conv3_2/dw (in-place)
I0613 09:34:23.386018 35302 net.cpp:163] Setting up conv3_2/dw/bn
I0613 09:34:23.386030 35302 net.cpp:170] Top shape: 48 128 28 28 (4816896)
I0613 09:34:23.386037 35302 layer_factory.hpp:74] Creating layer conv3_2/dw/scale
I0613 09:34:23.386044 35302 net.cpp:99] Creating Layer conv3_2/dw/scale
I0613 09:34:23.386045 35302 net.cpp:479] conv3_2/dw/scale <- conv3_2/dw
I0613 09:34:23.386049 35302 net.cpp:130] This layer is inheriting previous layer's sync mode: 1
I0613 09:34:23.386051 35302 net.cpp:424] conv3_2/dw/scale -> conv3_2/dw (in-place)
I0613 09:34:23.386054 35302 net.cpp:163] Setting up conv3_2/dw/scale
I0613 09:34:23.386060 35302 layer_factory.hpp:74] Creating layer conv3_2/dw/scale
I0613 09:34:23.386075 35302 net.cpp:170] Top shape: 48 128 28 28 (4816896)
I0613 09:34:23.386080 35302 layer_factory.hpp:74] Creating layer relu3_2/dw
I0613 09:34:23.386090 35302 net.cpp:99] Creating Layer relu3_2/dw
I0613 09:34:23.386092 35302 net.cpp:479] relu3_2/dw <- conv3_2/dw
I0613 09:34:23.386095 35302 net.cpp:130] This layer is inheriting previous layer's sync mode: 1
I0613 09:34:23.386098 35302 net.cpp:424] relu3_2/dw -> conv3_2/dw (in-place)
I0613 09:34:23.386101 35302 net.cpp:163] Setting up relu3_2/dw
I0613 09:34:23.387163 35302 net.cpp:170] Top shape: 48 128 28 28 (4816896)
I0613 09:34:23.387172 35302 layer_factory.hpp:74] Creating layer conv3_2/sep
I0613 09:34:23.387181 35302 net.cpp:99] Creating Layer conv3_2/sep
I0613 09:34:23.387183 35302 net.cpp:479] conv3_2/sep <- conv3_2/dw
I0613 09:34:23.387187 35302 net.cpp:130] This layer is inheriting previous layer's sync mode: 1
I0613 09:34:23.387192 35302 net.cpp:435] conv3_2/sep -> conv3_2/sep
I0613 09:34:23.387198 35302 net.cpp:163] Setting up conv3_2/sep
I0613 09:34:23.535763 35302 net.cpp:170] Top shape: 48 256 28 28 (9633792)
I0613 09:34:23.535791 35302 layer_factory.hpp:74] Creating layer conv3_2/sep/bn
I0613 09:34:23.535804 35302 net.cpp:99] Creating Layer conv3_2/sep/bn
I0613 09:34:23.535809 35302 net.cpp:479] conv3_2/sep/bn <- conv3_2/sep
I0613 09:34:23.535815 35302 net.cpp:130] This layer is inheriting previous layer's sync mode: 1
I0613 09:34:23.535820 35302 net.cpp:424] conv3_2/sep/bn -> conv3_2/sep (in-place)
I0613 09:34:23.535826 35302 net.cpp:163] Setting up conv3_2/sep/bn
I0613 09:34:23.535845 35302 net.cpp:170] Top shape: 48 256 28 28 (9633792)
I0613 09:34:23.535853 35302 layer_factory.hpp:74] Creating layer conv3_2/sep/scale
I0613 09:34:23.535863 35302 net.cpp:99] Creating Layer conv3_2/sep/scale
I0613 09:34:23.535866 35302 net.cpp:479] conv3_2/sep/scale <- conv3_2/sep
I0613 09:34:23.535868 35302 net.cpp:130] This layer is inheriting previous layer's sync mode: 1
I0613 09:34:23.535873 35302 net.cpp:424] conv3_2/sep/scale -> conv3_2/sep (in-place)
I0613 09:34:23.535877 35302 net.cpp:163] Setting up conv3_2/sep/scale
I0613 09:34:23.535886 35302 layer_factory.hpp:74] Creating layer conv3_2/sep/scale
I0613 09:34:23.535928 35302 net.cpp:170] Top shape: 48 256 28 28 (9633792)
I0613 09:34:23.535935 35302 layer_factory.hpp:74] Creating layer relu3_2/sep
I0613 09:34:23.535940 35302 net.cpp:99] Creating Layer relu3_2/sep
I0613 09:34:23.535943 35302 net.cpp:479] relu3_2/sep <- conv3_2/sep
I0613 09:34:23.535946 35302 net.cpp:130] This layer is inheriting previous layer's sync mode: 1
I0613 09:34:23.535949 35302 net.cpp:424] relu3_2/sep -> conv3_2/sep (in-place)
I0613 09:34:23.535953 35302 net.cpp:163] Setting up relu3_2/sep
I0613 09:34:23.536147 35302 net.cpp:170] Top shape: 48 256 28 28 (9633792)
I0613 09:34:23.536159 35302 layer_factory.hpp:74] Creating layer conv4_1/dw
I0613 09:34:23.536166 35302 net.cpp:99] Creating Layer conv4_1/dw
I0613 09:34:23.536168 35302 net.cpp:479] conv4_1/dw <- conv3_2/sep
I0613 09:34:23.536171 35302 net.cpp:130] This layer is inheriting previous layer's sync mode: 1
I0613 09:34:23.536176 35302 net.cpp:435] conv4_1/dw -> conv4_1/dw
I0613 09:34:23.536183 35302 net.cpp:163] Setting up conv4_1/dw
I0613 09:34:23.536229 35302 net.cpp:170] Top shape: 48 256 28 28 (9633792)
I0613 09:34:23.536236 35302 layer_factory.hpp:74] Creating layer conv4_1/dw/bn
I0613 09:34:23.536240 35302 net.cpp:99] Creating Layer conv4_1/dw/bn
I0613 09:34:23.536243 35302 net.cpp:479] conv4_1/dw/bn <- conv4_1/dw
I0613 09:34:23.536245 35302 net.cpp:130] This layer is inheriting previous layer's sync mode: 1
I0613 09:34:23.536248 35302 net.cpp:424] conv4_1/dw/bn -> conv4_1/dw (in-place)
I0613 09:34:23.536252 35302 net.cpp:163] Setting up conv4_1/dw/bn
I0613 09:34:23.536263 35302 net.cpp:170] Top shape: 48 256 28 28 (9633792)
I0613 09:34:23.536269 35302 layer_factory.hpp:74] Creating layer conv4_1/dw/scale
I0613 09:34:23.536273 35302 net.cpp:99] Creating Layer conv4_1/dw/scale
I0613 09:34:23.536276 35302 net.cpp:479] conv4_1/dw/scale <- conv4_1/dw
I0613 09:34:23.536280 35302 net.cpp:130] This layer is inheriting previous layer's sync mode: 1
I0613 09:34:23.536283 35302 net.cpp:424] conv4_1/dw/scale -> conv4_1/dw (in-place)
I0613 09:34:23.536286 35302 net.cpp:163] Setting up conv4_1/dw/scale
I0613 09:34:23.536293 35302 layer_factory.hpp:74] Creating layer conv4_1/dw/scale
I0613 09:34:23.536304 35302 net.cpp:170] Top shape: 48 256 28 28 (9633792)
I0613 09:34:23.536309 35302 layer_factory.hpp:74] Creating layer relu4_1/dw
I0613 09:34:23.536314 35302 net.cpp:99] Creating Layer relu4_1/dw
I0613 09:34:23.536315 35302 net.cpp:479] relu4_1/dw <- conv4_1/dw
I0613 09:34:23.536319 35302 net.cpp:130] This layer is inheriting previous layer's sync mode: 1
I0613 09:34:23.536321 35302 net.cpp:424] relu4_1/dw -> conv4_1/dw (in-place)
I0613 09:34:23.536324 35302 net.cpp:163] Setting up relu4_1/dw
I0613 09:34:23.537611 35302 net.cpp:170] Top shape: 48 256 28 28 (9633792)
I0613 09:34:23.537622 35302 layer_factory.hpp:74] Creating layer conv4_1/sep
I0613 09:34:23.537629 35302 net.cpp:99] Creating Layer conv4_1/sep
I0613 09:34:23.537631 35302 net.cpp:479] conv4_1/sep <- conv4_1/dw
I0613 09:34:23.537636 35302 net.cpp:130] This layer is inheriting previous layer's sync mode: 1
I0613 09:34:23.537642 35302 net.cpp:435] conv4_1/sep -> conv4_1/sep
I0613 09:34:23.537648 35302 net.cpp:163] Setting up conv4_1/sep
I0613 09:34:23.727226 35302 net.cpp:170] Top shape: 48 256 28 28 (9633792)
I0613 09:34:23.727262 35302 layer_factory.hpp:74] Creating layer conv4_1/sep/bn
I0613 09:34:23.727278 35302 net.cpp:99] Creating Layer conv4_1/sep/bn
I0613 09:34:23.727284 35302 net.cpp:479] conv4_1/sep/bn <- conv4_1/sep
I0613 09:34:23.727293 35302 net.cpp:130] This layer is inheriting previous layer's sync mode: 1
I0613 09:34:23.727299 35302 net.cpp:424] conv4_1/sep/bn -> conv4_1/sep (in-place)
I0613 09:34:23.727308 35302 net.cpp:163] Setting up conv4_1/sep/bn
I0613 09:34:23.727326 35302 net.cpp:170] Top shape: 48 256 28 28 (9633792)
I0613 09:34:23.727334 35302 layer_factory.hpp:74] Creating layer conv4_1/sep/scale
I0613 09:34:23.727339 35302 net.cpp:99] Creating Layer conv4_1/sep/scale
I0613 09:34:23.727342 35302 net.cpp:479] conv4_1/sep/scale <- conv4_1/sep
I0613 09:34:23.727361 35302 net.cpp:130] This layer is inheriting previous layer's sync mode: 1
I0613 09:34:23.727367 35302 net.cpp:424] conv4_1/sep/scale -> conv4_1/sep (in-place)
I0613 09:34:23.727373 35302 net.cpp:163] Setting up conv4_1/sep/scale
I0613 09:34:23.727380 35302 layer_factory.hpp:74] Creating layer conv4_1/sep/scale
I0613 09:34:23.727399 35302 net.cpp:170] Top shape: 48 256 28 28 (9633792)
I0613 09:34:23.727416 35302 layer_factory.hpp:74] Creating layer relu4_1/sep
I0613 09:34:23.727429 35302 net.cpp:99] Creating Layer relu4_1/sep
I0613 09:34:23.727432 35302 net.cpp:479] relu4_1/sep <- conv4_1/sep
I0613 09:34:23.727434 35302 net.cpp:130] This layer is inheriting previous layer's sync mode: 1
I0613 09:34:23.727437 35302 net.cpp:424] relu4_1/sep -> conv4_1/sep (in-place)
I0613 09:34:23.727442 35302 net.cpp:163] Setting up relu4_1/sep
I0613 09:34:23.727671 35302 net.cpp:170] Top shape: 48 256 28 28 (9633792)
I0613 09:34:23.727679 35302 layer_factory.hpp:74] Creating layer conv4_2/dw
I0613 09:34:23.727687 35302 net.cpp:99] Creating Layer conv4_2/dw
I0613 09:34:23.727691 35302 net.cpp:479] conv4_2/dw <- conv4_1/sep
I0613 09:34:23.727694 35302 net.cpp:130] This layer is inheriting previous layer's sync mode: 1
I0613 09:34:23.727706 35302 net.cpp:435] conv4_2/dw -> conv4_2/dw
I0613 09:34:23.727712 35302 net.cpp:163] Setting up conv4_2/dw
I0613 09:34:23.727751 35302 net.cpp:170] Top shape: 48 256 14 14 (2408448)
I0613 09:34:23.727757 35302 layer_factory.hpp:74] Creating layer conv4_2/dw/bn
I0613 09:34:23.727762 35302 net.cpp:99] Creating Layer conv4_2/dw/bn
I0613 09:34:23.727764 35302 net.cpp:479] conv4_2/dw/bn <- conv4_2/dw
I0613 09:34:23.727768 35302 net.cpp:130] This layer is inheriting previous layer's sync mode: 1
I0613 09:34:23.727773 35302 net.cpp:424] conv4_2/dw/bn -> conv4_2/dw (in-place)
I0613 09:34:23.727777 35302 net.cpp:163] Setting up conv4_2/dw/bn
I0613 09:34:23.727792 35302 net.cpp:170] Top shape: 48 256 14 14 (2408448)
I0613 09:34:23.727839 35302 layer_factory.hpp:74] Creating layer conv4_2/dw/scale
I0613 09:34:23.727843 35302 net.cpp:99] Creating Layer conv4_2/dw/scale
I0613 09:34:23.727846 35302 net.cpp:479] conv4_2/dw/scale <- conv4_2/dw
I0613 09:34:23.727849 35302 net.cpp:130] This layer is inheriting previous layer's sync mode: 1
I0613 09:34:23.727854 35302 net.cpp:424] conv4_2/dw/scale -> conv4_2/dw (in-place)
I0613 09:34:23.727856 35302 net.cpp:163] Setting up conv4_2/dw/scale
I0613 09:34:23.727861 35302 layer_factory.hpp:74] Creating layer conv4_2/dw/scale
I0613 09:34:23.727874 35302 net.cpp:170] Top shape: 48 256 14 14 (2408448)
I0613 09:34:23.727880 35302 layer_factory.hpp:74] Creating layer relu4_2/dw
I0613 09:34:23.727883 35302 net.cpp:99] Creating Layer relu4_2/dw
I0613 09:34:23.727885 35302 net.cpp:479] relu4_2/dw <- conv4_2/dw
I0613 09:34:23.727888 35302 net.cpp:130] This layer is inheriting previous layer's sync mode: 1
I0613 09:34:23.727891 35302 net.cpp:424] relu4_2/dw -> conv4_2/dw (in-place)
I0613 09:34:23.727895 35302 net.cpp:163] Setting up relu4_2/dw
I0613 09:34:23.731799 35302 net.cpp:170] Top shape: 48 256 14 14 (2408448)
I0613 09:34:23.731811 35302 layer_factory.hpp:74] Creating layer conv4_2/sep
I0613 09:34:23.731818 35302 net.cpp:99] Creating Layer conv4_2/sep
I0613 09:34:23.731822 35302 net.cpp:479] conv4_2/sep <- conv4_2/dw
I0613 09:34:23.731825 35302 net.cpp:130] This layer is inheriting previous layer's sync mode: 1
I0613 09:34:23.731830 35302 net.cpp:435] conv4_2/sep -> conv4_2/sep
I0613 09:34:23.731837 35302 net.cpp:163] Setting up conv4_2/sep
I0613 09:34:23.905983 35302 net.cpp:170] Top shape: 48 512 14 14 (4816896)
I0613 09:34:23.906002 35302 layer_factory.hpp:74] Creating layer conv4_2/sep/bn
I0613 09:34:23.906008 35302 net.cpp:99] Creating Layer conv4_2/sep/bn
I0613 09:34:23.906013 35302 net.cpp:479] conv4_2/sep/bn <- conv4_2/sep
I0613 09:34:23.906016 35302 net.cpp:130] This layer is inheriting previous layer's sync mode: 1
I0613 09:34:23.906019 35302 net.cpp:424] conv4_2/sep/bn -> conv4_2/sep (in-place)
I0613 09:34:23.906040 35302 net.cpp:163] Setting up conv4_2/sep/bn
I0613 09:34:23.906054 35302 net.cpp:170] Top shape: 48 512 14 14 (4816896)
I0613 09:34:23.906060 35302 layer_factory.hpp:74] Creating layer conv4_2/sep/scale
I0613 09:34:23.906066 35302 net.cpp:99] Creating Layer conv4_2/sep/scale
I0613 09:34:23.906069 35302 net.cpp:479] conv4_2/sep/scale <- conv4_2/sep
I0613 09:34:23.906072 35302 net.cpp:130] This layer is inheriting previous layer's sync mode: 1
I0613 09:34:23.906076 35302 net.cpp:424] conv4_2/sep/scale -> conv4_2/sep (in-place)
I0613 09:34:23.906080 35302 net.cpp:163] Setting up conv4_2/sep/scale
I0613 09:34:23.906088 35302 layer_factory.hpp:74] Creating layer conv4_2/sep/scale
I0613 09:34:23.906105 35302 net.cpp:170] Top shape: 48 512 14 14 (4816896)
I0613 09:34:23.906111 35302 layer_factory.hpp:74] Creating layer relu4_2/sep
I0613 09:34:23.906114 35302 net.cpp:99] Creating Layer relu4_2/sep
I0613 09:34:23.906116 35302 net.cpp:479] relu4_2/sep <- conv4_2/sep
I0613 09:34:23.906121 35302 net.cpp:130] This layer is inheriting previous layer's sync mode: 1
I0613 09:34:23.906122 35302 net.cpp:424] relu4_2/sep -> conv4_2/sep (in-place)
I0613 09:34:23.906127 35302 net.cpp:163] Setting up relu4_2/sep
I0613 09:34:23.906307 35302 net.cpp:170] Top shape: 48 512 14 14 (4816896)
I0613 09:34:23.906317 35302 layer_factory.hpp:74] Creating layer conv5_1/dw
I0613 09:34:23.906323 35302 net.cpp:99] Creating Layer conv5_1/dw
I0613 09:34:23.906327 35302 net.cpp:479] conv5_1/dw <- conv4_2/sep
I0613 09:34:23.906329 35302 net.cpp:130] This layer is inheriting previous layer's sync mode: 1
I0613 09:34:23.906335 35302 net.cpp:435] conv5_1/dw -> conv5_1/dw
I0613 09:34:23.906340 35302 net.cpp:163] Setting up conv5_1/dw
I0613 09:34:23.906404 35302 net.cpp:170] Top shape: 48 512 14 14 (4816896)
I0613 09:34:23.906409 35302 layer_factory.hpp:74] Creating layer conv5_1/dw/bn
I0613 09:34:23.906416 35302 net.cpp:99] Creating Layer conv5_1/dw/bn
I0613 09:34:23.906419 35302 net.cpp:479] conv5_1/dw/bn <- conv5_1/dw
I0613 09:34:23.906421 35302 net.cpp:130] This layer is inheriting previous layer's sync mode: 1
I0613 09:34:23.906425 35302 net.cpp:424] conv5_1/dw/bn -> conv5_1/dw (in-place)
I0613 09:34:23.906430 35302 net.cpp:163] Setting up conv5_1/dw/bn
I0613 09:34:23.906440 35302 net.cpp:170] Top shape: 48 512 14 14 (4816896)
I0613 09:34:23.906445 35302 layer_factory.hpp:74] Creating layer conv5_1/dw/scale
I0613 09:34:23.906450 35302 net.cpp:99] Creating Layer conv5_1/dw/scale
I0613 09:34:23.906452 35302 net.cpp:479] conv5_1/dw/scale <- conv5_1/dw
I0613 09:34:23.906455 35302 net.cpp:130] This layer is inheriting previous layer's sync mode: 1
I0613 09:34:23.906460 35302 net.cpp:424] conv5_1/dw/scale -> conv5_1/dw (in-place)
I0613 09:34:23.906463 35302 net.cpp:163] Setting up conv5_1/dw/scale
I0613 09:34:23.906471 35302 layer_factory.hpp:74] Creating layer conv5_1/dw/scale
I0613 09:34:23.906484 35302 net.cpp:170] Top shape: 48 512 14 14 (4816896)
I0613 09:34:23.906488 35302 layer_factory.hpp:74] Creating layer relu5_1/dw
I0613 09:34:23.906491 35302 net.cpp:99] Creating Layer relu5_1/dw
I0613 09:34:23.906494 35302 net.cpp:479] relu5_1/dw <- conv5_1/dw
I0613 09:34:23.906497 35302 net.cpp:130] This layer is inheriting previous layer's sync mode: 1
I0613 09:34:23.906502 35302 net.cpp:424] relu5_1/dw -> conv5_1/dw (in-place)
I0613 09:34:23.906504 35302 net.cpp:163] Setting up relu5_1/dw
I0613 09:34:23.910612 35302 net.cpp:170] Top shape: 48 512 14 14 (4816896)
I0613 09:34:23.910624 35302 layer_factory.hpp:74] Creating layer conv5_1/sep
I0613 09:34:23.910631 35302 net.cpp:99] Creating Layer conv5_1/sep
I0613 09:34:23.910634 35302 net.cpp:479] conv5_1/sep <- conv5_1/dw
I0613 09:34:23.910640 35302 net.cpp:130] This layer is inheriting previous layer's sync mode: 1
I0613 09:34:23.910645 35302 net.cpp:435] conv5_1/sep -> conv5_1/sep
I0613 09:34:23.910655 35302 net.cpp:163] Setting up conv5_1/sep
I0613 09:34:24.138274 35302 net.cpp:170] Top shape: 48 512 14 14 (4816896)
I0613 09:34:24.138298 35302 layer_factory.hpp:74] Creating layer conv5_1/sep/bn
I0613 09:34:24.138321 35302 net.cpp:99] Creating Layer conv5_1/sep/bn
I0613 09:34:24.138326 35302 net.cpp:479] conv5_1/sep/bn <- conv5_1/sep
I0613 09:34:24.138330 35302 net.cpp:130] This layer is inheriting previous layer's sync mode: 1
I0613 09:34:24.138335 35302 net.cpp:424] conv5_1/sep/bn -> conv5_1/sep (in-place)
I0613 09:34:24.138341 35302 net.cpp:163] Setting up conv5_1/sep/bn
I0613 09:34:24.138355 35302 net.cpp:170] Top shape: 48 512 14 14 (4816896)
I0613 09:34:24.138361 35302 layer_factory.hpp:74] Creating layer conv5_1/sep/scale
I0613 09:34:24.138370 35302 net.cpp:99] Creating Layer conv5_1/sep/scale
I0613 09:34:24.138372 35302 net.cpp:479] conv5_1/sep/scale <- conv5_1/sep
I0613 09:34:24.138375 35302 net.cpp:130] This layer is inheriting previous layer's sync mode: 1
I0613 09:34:24.138380 35302 net.cpp:424] conv5_1/sep/scale -> conv5_1/sep (in-place)
I0613 09:34:24.138384 35302 net.cpp:163] Setting up conv5_1/sep/scale
I0613 09:34:24.138392 35302 layer_factory.hpp:74] Creating layer conv5_1/sep/scale
I0613 09:34:24.138406 35302 net.cpp:170] Top shape: 48 512 14 14 (4816896)
I0613 09:34:24.138411 35302 layer_factory.hpp:74] Creating layer relu5_1/sep
I0613 09:34:24.138415 35302 net.cpp:99] Creating Layer relu5_1/sep
I0613 09:34:24.138417 35302 net.cpp:479] relu5_1/sep <- conv5_1/sep
I0613 09:34:24.138420 35302 net.cpp:130] This layer is inheriting previous layer's sync mode: 1
I0613 09:34:24.138424 35302 net.cpp:424] relu5_1/sep -> conv5_1/sep (in-place)
I0613 09:34:24.138428 35302 net.cpp:163] Setting up relu5_1/sep
I0613 09:34:24.144764 35302 net.cpp:170] Top shape: 48 512 14 14 (4816896)
I0613 09:34:24.144776 35302 layer_factory.hpp:74] Creating layer conv5_2/dw
I0613 09:34:24.144783 35302 net.cpp:99] Creating Layer conv5_2/dw
I0613 09:34:24.144788 35302 net.cpp:479] conv5_2/dw <- conv5_1/sep
I0613 09:34:24.144791 35302 net.cpp:130] This layer is inheriting previous layer's sync mode: 1
I0613 09:34:24.144798 35302 net.cpp:435] conv5_2/dw -> conv5_2/dw
I0613 09:34:24.144804 35302 net.cpp:163] Setting up conv5_2/dw
I0613 09:34:24.144865 35302 net.cpp:170] Top shape: 48 512 14 14 (4816896)
I0613 09:34:24.144871 35302 layer_factory.hpp:74] Creating layer conv5_2/dw/bn
I0613 09:34:24.144878 35302 net.cpp:99] Creating Layer conv5_2/dw/bn
I0613 09:34:24.144881 35302 net.cpp:479] conv5_2/dw/bn <- conv5_2/dw
I0613 09:34:24.144884 35302 net.cpp:130] This layer is inheriting previous layer's sync mode: 1
I0613 09:34:24.144887 35302 net.cpp:424] conv5_2/dw/bn -> conv5_2/dw (in-place)
I0613 09:34:24.144892 35302 net.cpp:163] Setting up conv5_2/dw/bn
I0613 09:34:24.144902 35302 net.cpp:170] Top shape: 48 512 14 14 (4816896)
I0613 09:34:24.144912 35302 layer_factory.hpp:74] Creating layer conv5_2/dw/scale
I0613 09:34:24.144917 35302 net.cpp:99] Creating Layer conv5_2/dw/scale
I0613 09:34:24.144918 35302 net.cpp:479] conv5_2/dw/scale <- conv5_2/dw
I0613 09:34:24.144922 35302 net.cpp:130] This layer is inheriting previous layer's sync mode: 1
I0613 09:34:24.144924 35302 net.cpp:424] conv5_2/dw/scale -> conv5_2/dw (in-place)
I0613 09:34:24.144928 35302 net.cpp:163] Setting up conv5_2/dw/scale
I0613 09:34:24.144934 35302 layer_factory.hpp:74] Creating layer conv5_2/dw/scale
I0613 09:34:24.144949 35302 net.cpp:170] Top shape: 48 512 14 14 (4816896)
I0613 09:34:24.144954 35302 layer_factory.hpp:74] Creating layer relu5_2/dw
I0613 09:34:24.144968 35302 net.cpp:99] Creating Layer relu5_2/dw
I0613 09:34:24.144969 35302 net.cpp:479] relu5_2/dw <- conv5_2/dw
I0613 09:34:24.144973 35302 net.cpp:130] This layer is inheriting previous layer's sync mode: 1
I0613 09:34:24.144975 35302 net.cpp:424] relu5_2/dw -> conv5_2/dw (in-place)
I0613 09:34:24.144979 35302 net.cpp:163] Setting up relu5_2/dw
I0613 09:34:24.145138 35302 net.cpp:170] Top shape: 48 512 14 14 (4816896)
I0613 09:34:24.145146 35302 layer_factory.hpp:74] Creating layer conv5_2/sep
I0613 09:34:24.145153 35302 net.cpp:99] Creating Layer conv5_2/sep
I0613 09:34:24.145155 35302 net.cpp:479] conv5_2/sep <- conv5_2/dw
I0613 09:34:24.145159 35302 net.cpp:130] This layer is inheriting previous layer's sync mode: 1
I0613 09:34:24.145179 35302 net.cpp:435] conv5_2/sep -> conv5_2/sep
I0613 09:34:24.145186 35302 net.cpp:163] Setting up conv5_2/sep
I0613 09:34:24.383051 35302 net.cpp:170] Top shape: 48 512 14 14 (4816896)
I0613 09:34:24.383074 35302 layer_factory.hpp:74] Creating layer conv5_2/sep/bn
I0613 09:34:24.383083 35302 net.cpp:99] Creating Layer conv5_2/sep/bn
I0613 09:34:24.383088 35302 net.cpp:479] conv5_2/sep/bn <- conv5_2/sep
I0613 09:34:24.383093 35302 net.cpp:130] This layer is inheriting previous layer's sync mode: 1
I0613 09:34:24.383097 35302 net.cpp:424] conv5_2/sep/bn -> conv5_2/sep (in-place)
I0613 09:34:24.383105 35302 net.cpp:163] Setting up conv5_2/sep/bn
I0613 09:34:24.383121 35302 net.cpp:170] Top shape: 48 512 14 14 (4816896)
I0613 09:34:24.383127 35302 layer_factory.hpp:74] Creating layer conv5_2/sep/scale
I0613 09:34:24.383134 35302 net.cpp:99] Creating Layer conv5_2/sep/scale
I0613 09:34:24.383137 35302 net.cpp:479] conv5_2/sep/scale <- conv5_2/sep
I0613 09:34:24.383141 35302 net.cpp:130] This layer is inheriting previous layer's sync mode: 1
I0613 09:34:24.383146 35302 net.cpp:424] conv5_2/sep/scale -> conv5_2/sep (in-place)
I0613 09:34:24.383150 35302 net.cpp:163] Setting up conv5_2/sep/scale
I0613 09:34:24.383158 35302 layer_factory.hpp:74] Creating layer conv5_2/sep/scale
I0613 09:34:24.383173 35302 net.cpp:170] Top shape: 48 512 14 14 (4816896)
I0613 09:34:24.383177 35302 layer_factory.hpp:74] Creating layer relu5_2/sep
I0613 09:34:24.383183 35302 net.cpp:99] Creating Layer relu5_2/sep
I0613 09:34:24.383185 35302 net.cpp:479] relu5_2/sep <- conv5_2/sep
I0613 09:34:24.383188 35302 net.cpp:130] This layer is inheriting previous layer's sync mode: 1
I0613 09:34:24.383193 35302 net.cpp:424] relu5_2/sep -> conv5_2/sep (in-place)
I0613 09:34:24.383196 35302 net.cpp:163] Setting up relu5_2/sep
I0613 09:34:24.388167 35302 net.cpp:170] Top shape: 48 512 14 14 (4816896)
I0613 09:34:24.388182 35302 layer_factory.hpp:74] Creating layer conv5_3/dw
I0613 09:34:24.388193 35302 net.cpp:99] Creating Layer conv5_3/dw
I0613 09:34:24.388198 35302 net.cpp:479] conv5_3/dw <- conv5_2/sep
I0613 09:34:24.388203 35302 net.cpp:130] This layer is inheriting previous layer's sync mode: 1
I0613 09:34:24.388214 35302 net.cpp:435] conv5_3/dw -> conv5_3/dw
I0613 09:34:24.388223 35302 net.cpp:163] Setting up conv5_3/dw
I0613 09:34:24.388322 35302 net.cpp:170] Top shape: 48 512 14 14 (4816896)
I0613 09:34:24.388334 35302 layer_factory.hpp:74] Creating layer conv5_3/dw/bn
I0613 09:34:24.388346 35302 net.cpp:99] Creating Layer conv5_3/dw/bn
I0613 09:34:24.388350 35302 net.cpp:479] conv5_3/dw/bn <- conv5_3/dw
I0613 09:34:24.388355 35302 net.cpp:130] This layer is inheriting previous layer's sync mode: 1
I0613 09:34:24.388360 35302 net.cpp:424] conv5_3/dw/bn -> conv5_3/dw (in-place)
I0613 09:34:24.388367 35302 net.cpp:163] Setting up conv5_3/dw/bn
I0613 09:34:24.388386 35302 net.cpp:170] Top shape: 48 512 14 14 (4816896)
I0613 09:34:24.388396 35302 layer_factory.hpp:74] Creating layer conv5_3/dw/scale
I0613 09:34:24.388406 35302 net.cpp:99] Creating Layer conv5_3/dw/scale
I0613 09:34:24.388411 35302 net.cpp:479] conv5_3/dw/scale <- conv5_3/dw
I0613 09:34:24.388415 35302 net.cpp:130] This layer is inheriting previous layer's sync mode: 1
I0613 09:34:24.388420 35302 net.cpp:424] conv5_3/dw/scale -> conv5_3/dw (in-place)
I0613 09:34:24.388427 35302 net.cpp:163] Setting up conv5_3/dw/scale
I0613 09:34:24.388438 35302 layer_factory.hpp:74] Creating layer conv5_3/dw/scale
I0613 09:34:24.388463 35302 net.cpp:170] Top shape: 48 512 14 14 (4816896)
I0613 09:34:24.388473 35302 layer_factory.hpp:74] Creating layer relu5_3/dw
I0613 09:34:24.388480 35302 net.cpp:99] Creating Layer relu5_3/dw
I0613 09:34:24.388485 35302 net.cpp:479] relu5_3/dw <- conv5_3/dw
I0613 09:34:24.388489 35302 net.cpp:130] This layer is inheriting previous layer's sync mode: 1
I0613 09:34:24.388496 35302 net.cpp:424] relu5_3/dw -> conv5_3/dw (in-place)
I0613 09:34:24.388501 35302 net.cpp:163] Setting up relu5_3/dw
I0613 09:34:24.388747 35302 net.cpp:170] Top shape: 48 512 14 14 (4816896)
I0613 09:34:24.388779 35302 layer_factory.hpp:74] Creating layer conv5_3/sep
I0613 09:34:24.388797 35302 net.cpp:99] Creating Layer conv5_3/sep
I0613 09:34:24.388801 35302 net.cpp:479] conv5_3/sep <- conv5_3/dw
I0613 09:34:24.388808 35302 net.cpp:130] This layer is inheriting previous layer's sync mode: 1
I0613 09:34:24.388814 35302 net.cpp:435] conv5_3/sep -> conv5_3/sep
I0613 09:34:24.388821 35302 net.cpp:163] Setting up conv5_3/sep
I0613 09:34:24.610185 35302 net.cpp:170] Top shape: 48 512 14 14 (4816896)
I0613 09:34:24.610216 35302 layer_factory.hpp:74] Creating layer conv5_3/sep/bn
I0613 09:34:24.610229 35302 net.cpp:99] Creating Layer conv5_3/sep/bn
I0613 09:34:24.610235 35302 net.cpp:479] conv5_3/sep/bn <- conv5_3/sep
I0613 09:34:24.610242 35302 net.cpp:130] This layer is inheriting previous layer's sync mode: 1
I0613 09:34:24.610247 35302 net.cpp:424] conv5_3/sep/bn -> conv5_3/sep (in-place)
I0613 09:34:24.610255 35302 net.cpp:163] Setting up conv5_3/sep/bn
I0613 09:34:24.610270 35302 net.cpp:170] Top shape: 48 512 14 14 (4816896)
I0613 09:34:24.610276 35302 layer_factory.hpp:74] Creating layer conv5_3/sep/scale
I0613 09:34:24.610285 35302 net.cpp:99] Creating Layer conv5_3/sep/scale
I0613 09:34:24.610286 35302 net.cpp:479] conv5_3/sep/scale <- conv5_3/sep
I0613 09:34:24.610290 35302 net.cpp:130] This layer is inheriting previous layer's sync mode: 1
I0613 09:34:24.610296 35302 net.cpp:424] conv5_3/sep/scale -> conv5_3/sep (in-place)
I0613 09:34:24.610301 35302 net.cpp:163] Setting up conv5_3/sep/scale
I0613 09:34:24.610308 35302 layer_factory.hpp:74] Creating layer conv5_3/sep/scale
I0613 09:34:24.610323 35302 net.cpp:170] Top shape: 48 512 14 14 (4816896)
I0613 09:34:24.610329 35302 layer_factory.hpp:74] Creating layer relu5_3/sep
I0613 09:34:24.610333 35302 net.cpp:99] Creating Layer relu5_3/sep
I0613 09:34:24.610337 35302 net.cpp:479] relu5_3/sep <- conv5_3/sep
I0613 09:34:24.610338 35302 net.cpp:130] This layer is inheriting previous layer's sync mode: 1
I0613 09:34:24.610342 35302 net.cpp:424] relu5_3/sep -> conv5_3/sep (in-place)
I0613 09:34:24.610345 35302 net.cpp:163] Setting up relu5_3/sep
I0613 09:34:24.613749 35302 net.cpp:170] Top shape: 48 512 14 14 (4816896)
I0613 09:34:24.613761 35302 layer_factory.hpp:74] Creating layer conv5_4/dw
I0613 09:34:24.613771 35302 net.cpp:99] Creating Layer conv5_4/dw
I0613 09:34:24.613775 35302 net.cpp:479] conv5_4/dw <- conv5_3/sep
I0613 09:34:24.613780 35302 net.cpp:130] This layer is inheriting previous layer's sync mode: 1
I0613 09:34:24.613787 35302 net.cpp:435] conv5_4/dw -> conv5_4/dw
I0613 09:34:24.613795 35302 net.cpp:163] Setting up conv5_4/dw
I0613 09:34:24.613862 35302 net.cpp:170] Top shape: 48 512 14 14 (4816896)
I0613 09:34:24.613869 35302 layer_factory.hpp:74] Creating layer conv5_4/dw/bn
I0613 09:34:24.613874 35302 net.cpp:99] Creating Layer conv5_4/dw/bn
I0613 09:34:24.613878 35302 net.cpp:479] conv5_4/dw/bn <- conv5_4/dw
I0613 09:34:24.613881 35302 net.cpp:130] This layer is inheriting previous layer's sync mode: 1
I0613 09:34:24.613886 35302 net.cpp:424] conv5_4/dw/bn -> conv5_4/dw (in-place)
I0613 09:34:24.613890 35302 net.cpp:163] Setting up conv5_4/dw/bn
I0613 09:34:24.613901 35302 net.cpp:170] Top shape: 48 512 14 14 (4816896)
I0613 09:34:24.613907 35302 layer_factory.hpp:74] Creating layer conv5_4/dw/scale
I0613 09:34:24.613912 35302 net.cpp:99] Creating Layer conv5_4/dw/scale
I0613 09:34:24.613915 35302 net.cpp:479] conv5_4/dw/scale <- conv5_4/dw
I0613 09:34:24.613917 35302 net.cpp:130] This layer is inheriting previous layer's sync mode: 1
I0613 09:34:24.613921 35302 net.cpp:424] conv5_4/dw/scale -> conv5_4/dw (in-place)
I0613 09:34:24.613925 35302 net.cpp:163] Setting up conv5_4/dw/scale
I0613 09:34:24.613934 35302 layer_factory.hpp:74] Creating layer conv5_4/dw/scale
I0613 09:34:24.613947 35302 net.cpp:170] Top shape: 48 512 14 14 (4816896)
I0613 09:34:24.613952 35302 layer_factory.hpp:74] Creating layer relu5_4/dw
I0613 09:34:24.613957 35302 net.cpp:99] Creating Layer relu5_4/dw
I0613 09:34:24.613960 35302 net.cpp:479] relu5_4/dw <- conv5_4/dw
I0613 09:34:24.613981 35302 net.cpp:130] This layer is inheriting previous layer's sync mode: 1
I0613 09:34:24.613984 35302 net.cpp:424] relu5_4/dw -> conv5_4/dw (in-place)
I0613 09:34:24.613988 35302 net.cpp:163] Setting up relu5_4/dw
I0613 09:34:24.614156 35302 net.cpp:170] Top shape: 48 512 14 14 (4816896)
I0613 09:34:24.614163 35302 layer_factory.hpp:74] Creating layer conv5_4/sep
I0613 09:34:24.614171 35302 net.cpp:99] Creating Layer conv5_4/sep
I0613 09:34:24.614172 35302 net.cpp:479] conv5_4/sep <- conv5_4/dw
I0613 09:34:24.614177 35302 net.cpp:130] This layer is inheriting previous layer's sync mode: 1
I0613 09:34:24.614182 35302 net.cpp:435] conv5_4/sep -> conv5_4/sep
I0613 09:34:24.614188 35302 net.cpp:163] Setting up conv5_4/sep
I0613 09:34:24.852934 35302 net.cpp:170] Top shape: 48 512 14 14 (4816896)
I0613 09:34:24.852967 35302 layer_factory.hpp:74] Creating layer conv5_4/sep/bn
I0613 09:34:24.852980 35302 net.cpp:99] Creating Layer conv5_4/sep/bn
I0613 09:34:24.852987 35302 net.cpp:479] conv5_4/sep/bn <- conv5_4/sep
I0613 09:34:24.852993 35302 net.cpp:130] This layer is inheriting previous layer's sync mode: 1
I0613 09:34:24.852998 35302 net.cpp:424] conv5_4/sep/bn -> conv5_4/sep (in-place)
I0613 09:34:24.853006 35302 net.cpp:163] Setting up conv5_4/sep/bn
I0613 09:34:24.853027 35302 net.cpp:170] Top shape: 48 512 14 14 (4816896)
I0613 09:34:24.853035 35302 layer_factory.hpp:74] Creating layer conv5_4/sep/scale
I0613 09:34:24.853044 35302 net.cpp:99] Creating Layer conv5_4/sep/scale
I0613 09:34:24.853046 35302 net.cpp:479] conv5_4/sep/scale <- conv5_4/sep
I0613 09:34:24.853050 35302 net.cpp:130] This layer is inheriting previous layer's sync mode: 1
I0613 09:34:24.853054 35302 net.cpp:424] conv5_4/sep/scale -> conv5_4/sep (in-place)
I0613 09:34:24.853058 35302 net.cpp:163] Setting up conv5_4/sep/scale
I0613 09:34:24.853070 35302 layer_factory.hpp:74] Creating layer conv5_4/sep/scale
I0613 09:34:24.853091 35302 net.cpp:170] Top shape: 48 512 14 14 (4816896)
I0613 09:34:24.853096 35302 layer_factory.hpp:74] Creating layer relu5_4/sep
I0613 09:34:24.853101 35302 net.cpp:99] Creating Layer relu5_4/sep
I0613 09:34:24.853103 35302 net.cpp:479] relu5_4/sep <- conv5_4/sep
I0613 09:34:24.853106 35302 net.cpp:130] This layer is inheriting previous layer's sync mode: 1
I0613 09:34:24.853114 35302 net.cpp:424] relu5_4/sep -> conv5_4/sep (in-place)
I0613 09:34:24.853118 35302 net.cpp:163] Setting up relu5_4/sep
I0613 09:34:24.860817 35302 net.cpp:170] Top shape: 48 512 14 14 (4816896)
I0613 09:34:24.860833 35302 layer_factory.hpp:74] Creating layer conv5_5/dw
I0613 09:34:24.860846 35302 net.cpp:99] Creating Layer conv5_5/dw
I0613 09:34:24.860849 35302 net.cpp:479] conv5_5/dw <- conv5_4/sep
I0613 09:34:24.860853 35302 net.cpp:130] This layer is inheriting previous layer's sync mode: 1
I0613 09:34:24.860858 35302 net.cpp:435] conv5_5/dw -> conv5_5/dw
I0613 09:34:24.860865 35302 net.cpp:163] Setting up conv5_5/dw
I0613 09:34:24.860934 35302 net.cpp:170] Top shape: 48 512 14 14 (4816896)
I0613 09:34:24.860940 35302 layer_factory.hpp:74] Creating layer conv5_5/dw/bn
I0613 09:34:24.860945 35302 net.cpp:99] Creating Layer conv5_5/dw/bn
I0613 09:34:24.860949 35302 net.cpp:479] conv5_5/dw/bn <- conv5_5/dw
I0613 09:34:24.860951 35302 net.cpp:130] This layer is inheriting previous layer's sync mode: 1
I0613 09:34:24.860954 35302 net.cpp:424] conv5_5/dw/bn -> conv5_5/dw (in-place)
I0613 09:34:24.860961 35302 net.cpp:163] Setting up conv5_5/dw/bn
I0613 09:34:24.860975 35302 net.cpp:170] Top shape: 48 512 14 14 (4816896)
I0613 09:34:24.861037 35302 layer_factory.hpp:74] Creating layer conv5_5/dw/scale
I0613 09:34:24.861043 35302 net.cpp:99] Creating Layer conv5_5/dw/scale
I0613 09:34:24.861047 35302 net.cpp:479] conv5_5/dw/scale <- conv5_5/dw
I0613 09:34:24.861050 35302 net.cpp:130] This layer is inheriting previous layer's sync mode: 1
I0613 09:34:24.861055 35302 net.cpp:424] conv5_5/dw/scale -> conv5_5/dw (in-place)
I0613 09:34:24.861059 35302 net.cpp:163] Setting up conv5_5/dw/scale
I0613 09:34:24.861068 35302 layer_factory.hpp:74] Creating layer conv5_5/dw/scale
I0613 09:34:24.861102 35302 net.cpp:170] Top shape: 48 512 14 14 (4816896)
I0613 09:34:24.861107 35302 layer_factory.hpp:74] Creating layer relu5_5/dw
I0613 09:34:24.861111 35302 net.cpp:99] Creating Layer relu5_5/dw
I0613 09:34:24.861114 35302 net.cpp:479] relu5_5/dw <- conv5_5/dw
I0613 09:34:24.861117 35302 net.cpp:130] This layer is inheriting previous layer's sync mode: 1
I0613 09:34:24.861120 35302 net.cpp:424] relu5_5/dw -> conv5_5/dw (in-place)
I0613 09:34:24.861124 35302 net.cpp:163] Setting up relu5_5/dw
I0613 09:34:24.861297 35302 net.cpp:170] Top shape: 48 512 14 14 (4816896)
I0613 09:34:24.861304 35302 layer_factory.hpp:74] Creating layer conv5_5/sep
I0613 09:34:24.861313 35302 net.cpp:99] Creating Layer conv5_5/sep
I0613 09:34:24.861316 35302 net.cpp:479] conv5_5/sep <- conv5_5/dw
I0613 09:34:24.861320 35302 net.cpp:130] This layer is inheriting previous layer's sync mode: 1
I0613 09:34:24.861323 35302 net.cpp:435] conv5_5/sep -> conv5_5/sep
I0613 09:34:24.861328 35302 net.cpp:163] Setting up conv5_5/sep
I0613 09:34:25.072590 35302 net.cpp:170] Top shape: 48 512 14 14 (4816896)
I0613 09:34:25.072726 35302 layer_factory.hpp:74] Creating layer conv5_5/sep/bn
I0613 09:34:25.072741 35302 net.cpp:99] Creating Layer conv5_5/sep/bn
I0613 09:34:25.072746 35302 net.cpp:479] conv5_5/sep/bn <- conv5_5/sep
I0613 09:34:25.072753 35302 net.cpp:130] This layer is inheriting previous layer's sync mode: 1
I0613 09:34:25.072759 35302 net.cpp:424] conv5_5/sep/bn -> conv5_5/sep (in-place)
I0613 09:34:25.072767 35302 net.cpp:163] Setting up conv5_5/sep/bn
I0613 09:34:25.072782 35302 net.cpp:170] Top shape: 48 512 14 14 (4816896)
I0613 09:34:25.072791 35302 layer_factory.hpp:74] Creating layer conv5_5/sep/scale
I0613 09:34:25.072798 35302 net.cpp:99] Creating Layer conv5_5/sep/scale
I0613 09:34:25.072800 35302 net.cpp:479] conv5_5/sep/scale <- conv5_5/sep
I0613 09:34:25.072803 35302 net.cpp:130] This layer is inheriting previous layer's sync mode: 1
I0613 09:34:25.072806 35302 net.cpp:424] conv5_5/sep/scale -> conv5_5/sep (in-place)
I0613 09:34:25.072811 35302 net.cpp:163] Setting up conv5_5/sep/scale
I0613 09:34:25.072820 35302 layer_factory.hpp:74] Creating layer conv5_5/sep/scale
I0613 09:34:25.072839 35302 net.cpp:170] Top shape: 48 512 14 14 (4816896)
I0613 09:34:25.072844 35302 layer_factory.hpp:74] Creating layer relu5_5/sep
I0613 09:34:25.072850 35302 net.cpp:99] Creating Layer relu5_5/sep
I0613 09:34:25.072852 35302 net.cpp:479] relu5_5/sep <- conv5_5/sep
I0613 09:34:25.072855 35302 net.cpp:130] This layer is inheriting previous layer's sync mode: 1
I0613 09:34:25.072859 35302 net.cpp:424] relu5_5/sep -> conv5_5/sep (in-place)
I0613 09:34:25.072862 35302 net.cpp:163] Setting up relu5_5/sep
I0613 09:34:25.073088 35302 net.cpp:170] Top shape: 48 512 14 14 (4816896)
I0613 09:34:25.073097 35302 layer_factory.hpp:74] Creating layer conv5_6/dw
I0613 09:34:25.073104 35302 net.cpp:99] Creating Layer conv5_6/dw
I0613 09:34:25.073107 35302 net.cpp:479] conv5_6/dw <- conv5_5/sep
I0613 09:34:25.073110 35302 net.cpp:130] This layer is inheriting previous layer's sync mode: 1
I0613 09:34:25.073115 35302 net.cpp:435] conv5_6/dw -> conv5_6/dw
I0613 09:34:25.073122 35302 net.cpp:163] Setting up conv5_6/dw
I0613 09:34:25.073184 35302 net.cpp:170] Top shape: 48 512 7 7 (1204224)
I0613 09:34:25.073189 35302 layer_factory.hpp:74] Creating layer conv5_6/dw/bn
I0613 09:34:25.073194 35302 net.cpp:99] Creating Layer conv5_6/dw/bn
I0613 09:34:25.073196 35302 net.cpp:479] conv5_6/dw/bn <- conv5_6/dw
I0613 09:34:25.073199 35302 net.cpp:130] This layer is inheriting previous layer's sync mode: 1
I0613 09:34:25.073204 35302 net.cpp:424] conv5_6/dw/bn -> conv5_6/dw (in-place)
I0613 09:34:25.073209 35302 net.cpp:163] Setting up conv5_6/dw/bn
I0613 09:34:25.073218 35302 net.cpp:170] Top shape: 48 512 7 7 (1204224)
I0613 09:34:25.073225 35302 layer_factory.hpp:74] Creating layer conv5_6/dw/scale
I0613 09:34:25.073228 35302 net.cpp:99] Creating Layer conv5_6/dw/scale
I0613 09:34:25.073231 35302 net.cpp:479] conv5_6/dw/scale <- conv5_6/dw
I0613 09:34:25.073248 35302 net.cpp:130] This layer is inheriting previous layer's sync mode: 1
I0613 09:34:25.073252 35302 net.cpp:424] conv5_6/dw/scale -> conv5_6/dw (in-place)
I0613 09:34:25.073256 35302 net.cpp:163] Setting up conv5_6/dw/scale
I0613 09:34:25.073263 35302 layer_factory.hpp:74] Creating layer conv5_6/dw/scale
I0613 09:34:25.073277 35302 net.cpp:170] Top shape: 48 512 7 7 (1204224)
I0613 09:34:25.073282 35302 layer_factory.hpp:74] Creating layer relu5_6/dw
I0613 09:34:25.073285 35302 net.cpp:99] Creating Layer relu5_6/dw
I0613 09:34:25.073287 35302 net.cpp:479] relu5_6/dw <- conv5_6/dw
I0613 09:34:25.073290 35302 net.cpp:130] This layer is inheriting previous layer's sync mode: 1
I0613 09:34:25.073293 35302 net.cpp:424] relu5_6/dw -> conv5_6/dw (in-place)
I0613 09:34:25.073297 35302 net.cpp:163] Setting up relu5_6/dw
I0613 09:34:25.077998 35302 net.cpp:170] Top shape: 48 512 7 7 (1204224)
I0613 09:34:25.078011 35302 layer_factory.hpp:74] Creating layer conv5_6/sep
I0613 09:34:25.078022 35302 net.cpp:99] Creating Layer conv5_6/sep
I0613 09:34:25.078027 35302 net.cpp:479] conv5_6/sep <- conv5_6/dw
I0613 09:34:25.078032 35302 net.cpp:130] This layer is inheriting previous layer's sync mode: 1
I0613 09:34:25.078040 35302 net.cpp:435] conv5_6/sep -> conv5_6/sep
I0613 09:34:25.078049 35302 net.cpp:163] Setting up conv5_6/sep
I0613 09:34:25.344327 35302 net.cpp:170] Top shape: 48 1024 7 7 (2408448)
I0613 09:34:25.344359 35302 layer_factory.hpp:74] Creating layer conv5_6/sep/bn
I0613 09:34:25.344373 35302 net.cpp:99] Creating Layer conv5_6/sep/bn
I0613 09:34:25.344378 35302 net.cpp:479] conv5_6/sep/bn <- conv5_6/sep
I0613 09:34:25.344384 35302 net.cpp:130] This layer is inheriting previous layer's sync mode: 1
I0613 09:34:25.344389 35302 net.cpp:424] conv5_6/sep/bn -> conv5_6/sep (in-place)
I0613 09:34:25.344396 35302 net.cpp:163] Setting up conv5_6/sep/bn
I0613 09:34:25.344416 35302 net.cpp:170] Top shape: 48 1024 7 7 (2408448)
I0613 09:34:25.344424 35302 layer_factory.hpp:74] Creating layer conv5_6/sep/scale
I0613 09:34:25.344431 35302 net.cpp:99] Creating Layer conv5_6/sep/scale
I0613 09:34:25.344434 35302 net.cpp:479] conv5_6/sep/scale <- conv5_6/sep
I0613 09:34:25.344437 35302 net.cpp:130] This layer is inheriting previous layer's sync mode: 1
I0613 09:34:25.344440 35302 net.cpp:424] conv5_6/sep/scale -> conv5_6/sep (in-place)
I0613 09:34:25.344444 35302 net.cpp:163] Setting up conv5_6/sep/scale
I0613 09:34:25.344456 35302 layer_factory.hpp:74] Creating layer conv5_6/sep/scale
I0613 09:34:25.344472 35302 net.cpp:170] Top shape: 48 1024 7 7 (2408448)
I0613 09:34:25.344477 35302 layer_factory.hpp:74] Creating layer relu5_6/sep
I0613 09:34:25.344482 35302 net.cpp:99] Creating Layer relu5_6/sep
I0613 09:34:25.344485 35302 net.cpp:479] relu5_6/sep <- conv5_6/sep
I0613 09:34:25.344488 35302 net.cpp:130] This layer is inheriting previous layer's sync mode: 1
I0613 09:34:25.344492 35302 net.cpp:424] relu5_6/sep -> conv5_6/sep (in-place)
I0613 09:34:25.344496 35302 net.cpp:163] Setting up relu5_6/sep
I0613 09:34:25.350401 35302 net.cpp:170] Top shape: 48 1024 7 7 (2408448)
I0613 09:34:25.350414 35302 layer_factory.hpp:74] Creating layer conv6/dw
I0613 09:34:25.350425 35302 net.cpp:99] Creating Layer conv6/dw
I0613 09:34:25.350428 35302 net.cpp:479] conv6/dw <- conv5_6/sep
I0613 09:34:25.350431 35302 net.cpp:130] This layer is inheriting previous layer's sync mode: 1
I0613 09:34:25.350436 35302 net.cpp:435] conv6/dw -> conv6/dw
I0613 09:34:25.350445 35302 net.cpp:163] Setting up conv6/dw
I0613 09:34:25.350546 35302 net.cpp:170] Top shape: 48 1024 7 7 (2408448)
I0613 09:34:25.350553 35302 layer_factory.hpp:74] Creating layer conv6/dw/bn
I0613 09:34:25.350558 35302 net.cpp:99] Creating Layer conv6/dw/bn
I0613 09:34:25.350561 35302 net.cpp:479] conv6/dw/bn <- conv6/dw
I0613 09:34:25.350564 35302 net.cpp:130] This layer is inheriting previous layer's sync mode: 1
I0613 09:34:25.350569 35302 net.cpp:424] conv6/dw/bn -> conv6/dw (in-place)
I0613 09:34:25.350572 35302 net.cpp:163] Setting up conv6/dw/bn
I0613 09:34:25.350606 35302 net.cpp:170] Top shape: 48 1024 7 7 (2408448)
I0613 09:34:25.350613 35302 layer_factory.hpp:74] Creating layer conv6/dw/scale
I0613 09:34:25.350618 35302 net.cpp:99] Creating Layer conv6/dw/scale
I0613 09:34:25.350621 35302 net.cpp:479] conv6/dw/scale <- conv6/dw
I0613 09:34:25.350625 35302 net.cpp:130] This layer is inheriting previous layer's sync mode: 1
I0613 09:34:25.350628 35302 net.cpp:424] conv6/dw/scale -> conv6/dw (in-place)
I0613 09:34:25.350632 35302 net.cpp:163] Setting up conv6/dw/scale
I0613 09:34:25.350641 35302 layer_factory.hpp:74] Creating layer conv6/dw/scale
I0613 09:34:25.350656 35302 net.cpp:170] Top shape: 48 1024 7 7 (2408448)
I0613 09:34:25.350659 35302 layer_factory.hpp:74] Creating layer relu6/dw
I0613 09:34:25.350666 35302 net.cpp:99] Creating Layer relu6/dw
I0613 09:34:25.350668 35302 net.cpp:479] relu6/dw <- conv6/dw
I0613 09:34:25.350670 35302 net.cpp:130] This layer is inheriting previous layer's sync mode: 1
I0613 09:34:25.350673 35302 net.cpp:424] relu6/dw -> conv6/dw (in-place)
I0613 09:34:25.350677 35302 net.cpp:163] Setting up relu6/dw
I0613 09:34:25.357136 35302 net.cpp:170] Top shape: 48 1024 7 7 (2408448)
I0613 09:34:25.357146 35302 layer_factory.hpp:74] Creating layer conv6/sep
I0613 09:34:25.357154 35302 net.cpp:99] Creating Layer conv6/sep
I0613 09:34:25.357158 35302 net.cpp:479] conv6/sep <- conv6/dw
I0613 09:34:25.357162 35302 net.cpp:130] This layer is inheriting previous layer's sync mode: 1
I0613 09:34:25.357169 35302 net.cpp:435] conv6/sep -> conv6/sep
I0613 09:34:25.357175 35302 net.cpp:163] Setting up conv6/sep
I0613 09:34:25.791007 35302 net.cpp:170] Top shape: 48 1024 7 7 (2408448)
I0613 09:34:25.791038 35302 layer_factory.hpp:74] Creating layer conv6/sep/bn
I0613 09:34:25.791052 35302 net.cpp:99] Creating Layer conv6/sep/bn
I0613 09:34:25.791057 35302 net.cpp:479] conv6/sep/bn <- conv6/sep
I0613 09:34:25.791064 35302 net.cpp:130] This layer is inheriting previous layer's sync mode: 1
I0613 09:34:25.791069 35302 net.cpp:424] conv6/sep/bn -> conv6/sep (in-place)
I0613 09:34:25.791077 35302 net.cpp:163] Setting up conv6/sep/bn
I0613 09:34:25.791100 35302 net.cpp:170] Top shape: 48 1024 7 7 (2408448)
I0613 09:34:25.791107 35302 layer_factory.hpp:74] Creating layer conv6/sep/scale
I0613 09:34:25.791115 35302 net.cpp:99] Creating Layer conv6/sep/scale
I0613 09:34:25.791117 35302 net.cpp:479] conv6/sep/scale <- conv6/sep
I0613 09:34:25.791121 35302 net.cpp:130] This layer is inheriting previous layer's sync mode: 1
I0613 09:34:25.791123 35302 net.cpp:424] conv6/sep/scale -> conv6/sep (in-place)
I0613 09:34:25.791128 35302 net.cpp:163] Setting up conv6/sep/scale
I0613 09:34:25.791139 35302 layer_factory.hpp:74] Creating layer conv6/sep/scale
I0613 09:34:25.791160 35302 net.cpp:170] Top shape: 48 1024 7 7 (2408448)
I0613 09:34:25.791167 35302 layer_factory.hpp:74] Creating layer relu6/sep
I0613 09:34:25.791172 35302 net.cpp:99] Creating Layer relu6/sep
I0613 09:34:25.791174 35302 net.cpp:479] relu6/sep <- conv6/sep
I0613 09:34:25.791177 35302 net.cpp:130] This layer is inheriting previous layer's sync mode: 1
I0613 09:34:25.791180 35302 net.cpp:424] relu6/sep -> conv6/sep (in-place)
I0613 09:34:25.791187 35302 net.cpp:163] Setting up relu6/sep
I0613 09:34:25.791424 35302 net.cpp:170] Top shape: 48 1024 7 7 (2408448)
I0613 09:34:25.791431 35302 layer_factory.hpp:74] Creating layer pool6
I0613 09:34:25.791451 35302 net.cpp:99] Creating Layer pool6
I0613 09:34:25.791455 35302 net.cpp:479] pool6 <- conv6/sep
I0613 09:34:25.791458 35302 net.cpp:130] This layer is inheriting previous layer's sync mode: 1
I0613 09:34:25.791465 35302 net.cpp:435] pool6 -> pool6
I0613 09:34:25.791470 35302 net.cpp:163] Setting up pool6
I0613 09:34:25.792626 35302 net.cpp:170] Top shape: 48 1024 1 1 (49152)
I0613 09:34:25.792637 35302 layer_factory.hpp:74] Creating layer fc7
I0613 09:34:25.792649 35302 net.cpp:99] Creating Layer fc7
I0613 09:34:25.792651 35302 net.cpp:479] fc7 <- pool6
I0613 09:34:25.792655 35302 net.cpp:130] This layer is inheriting previous layer's sync mode: 1
I0613 09:34:25.792681 35302 net.cpp:435] fc7 -> fc7
I0613 09:34:25.792690 35302 net.cpp:163] Setting up fc7
I0613 09:34:26.188274 35302 net.cpp:170] Top shape: 48 1000 1 1 (48000)
I0613 09:34:26.188305 35302 layer_factory.hpp:74] Creating layer loss
I0613 09:34:26.188323 35302 net.cpp:99] Creating Layer loss
I0613 09:34:26.188328 35302 net.cpp:479] loss <- fc7
I0613 09:34:26.188334 35302 net.cpp:479] loss <- label
I0613 09:34:26.188341 35302 net.cpp:130] This layer is inheriting previous layer's sync mode: 1
I0613 09:34:26.188346 35302 net.cpp:435] loss -> loss
…
I0613 09:34:26.197700 35302 net.cpp:354] The NetState phase (1) differed from the phase (0) specified by a rule in layer data
I0613 09:34:26.198251 35302 net.cpp:46] Initializing net from parameters: 
name: "MobileNet"
state {
  phase: TEST
}
layer {
  name: "data"
  type: "Data"
  top: "data"
  top: "label"
  include {
    phase: TEST
  }
  transform_param {
    scale: 0.017
    mirror: false
    crop_size: 224
    mean_value: 103.94
    mean_value: 116.78
    mean_value: 123.68
  }
  data_param {
    source: "examples/imagenet/ilsvrc12_val_lmdb"
    batch_size: 50
    backend: LMDB
  }
}
layer {
  name: "conv1"
  type: "Convolution"
  bottom: "data"
  top: "conv1"
  param {
    lr_mult: 1
    decay_mult: 1
  }
  convolution_param {
    num_output: 32
    bias_term: false
    pad: 1
    kernel_size: 3
    stride: 2
    weight_filler {
      type: "msra"
    }
  }
}
layer {
  name: "conv1/bn"
  type: "BatchNorm"
  bottom: "conv1"
  top: "conv1"
  param {
    lr_mult: 0
    decay_mult: 0
  }
  param {
    lr_mult: 0
    decay_mult: 0
  }
  param {
    lr_mult: 0
    decay_mult: 0
  }
}
layer {
  name: "conv1/scale"
  type: "Scale"
  bottom: "conv1"
  top: "conv1"
  scale_param {
    filler {
      value: 1
    }
    bias_term: true
    bias_filler {
      value: 0
    }
  }
}
layer {
  name: "relu1"
  type: "ReLU"
  bottom: "conv1"
  top: "conv1"
}
layer {
  name: "conv2_1/dw"
  type: "Convolution"
  bottom: "conv1"
  top: "conv2_1/dw"
  param {
    lr_mult: 1
    decay_mult: 1
  }
  convolution_param {
    num_output: 32
    bias_term: false
    pad: 1
    kernel_size: 3
    group: 32
    stride: 1
    weight_filler {
      type: "msra"
    }
    engine: CAFFE
  }
}
layer {
  name: "conv2_1/dw/bn"
  type: "BatchNorm"
  bottom: "conv2_1/dw"
  top: "conv2_1/dw"
  param {
    lr_mult: 0
    decay_mult: 0
  }
  param {
    lr_mult: 0
    decay_mult: 0
  }
  param {
    lr_mult: 0
    decay_mult: 0
  }
}
layer {
  name: "conv2_1/dw/scale"
  type: "Scale"
  bottom: "conv2_1/dw"
  top: "conv2_1/dw"
  scale_param {
    filler {
      value: 1
    }
    bias_term: true
    bias_filler {
      value: 0
    }
  }
}
layer {
  name: "relu2_1/dw"
  type: "ReLU"
  bottom: "conv2_1/dw"
  top: "conv2_1/dw"
}
layer {
  name: "conv2_1/sep"
  type: "Convolution"
  bottom: "conv2_1/dw"
  top: "conv2_1/sep"
  param {
    lr_mult: 1
    decay_mult: 1
  }
  convolution_param {
    num_output: 64
    bias_term: false
    pad: 0
    kernel_size: 1
    stride: 1
    weight_filler {
      type: "msra"
    }
  }
}
layer {
  name: "conv2_1/sep/bn"
  type: "BatchNorm"
  bottom: "conv2_1/sep"
  top: "conv2_1/sep"
  param {
    lr_mult: 0
    decay_mult: 0
  }
  param {
    lr_mult: 0
    decay_mult: 0
  }
  param {
    lr_mult: 0
    decay_mult: 0
  }
}
layer {
  name: "conv2_1/sep/scale"
  type: "Scale"
  bottom: "conv2_1/sep"
  top: "conv2_1/sep"
  scale_param {
    filler {
      value: 1
    }
    bias_term: true
    bias_filler {
      value: 0
    }
  }
}
layer {
  name: "relu2_1/sep"
  type: "ReLU"
  bottom: "conv2_1/sep"
  top: "conv2_1/sep"
}
layer {
  name: "conv2_2/dw"
  type: "Convolution"
  bottom: "conv2_1/sep"
  top: "conv2_2/dw"
  param {
    lr_mult: 1
    decay_mult: 1
  }
  convolution_param {
    num_output: 64
    bias_term: false
    pad: 1
    kernel_size: 3
    group: 64
    stride: 2
    weight_filler {
      type: "msra"
    }
    engine: CAFFE
  }
}
layer {
  name: "conv2_2/dw/bn"
  type: "BatchNorm"
  bottom: "conv2_2/dw"
  top: "conv2_2/dw"
  param {
    lr_mult: 0
    decay_mult: 0
  }
  param {
    lr_mult: 0
    decay_mult: 0
  }
  param {
    lr_mult: 0
    decay_mult: 0
  }
}
layer {
  name: "conv2_2/dw/scale"
  type: "Scale"
  bottom: "conv2_2/dw"
  top: "conv2_2/dw"
  scale_param {
    filler {
      value: 1
    }
    bias_term: true
    bias_filler {
      value: 0
    }
  }
}
layer {
  name: "relu2_2/dw"
  type: "ReLU"
  bottom: "conv2_2/dw"
  top: "conv2_2/dw"
}
layer {
  name: "conv2_2/sep"
  type: "Convolution"
  bottom: "conv2_2/dw"
  top: "conv2_2/sep"
  param {
    lr_mult: 1
    decay_mult: 1
  }
  convolution_param {
    num_output: 128
    bias_term: false
    pad: 0
    kernel_size: 1
    stride: 1
    weight_filler {
      type: "msra"
    }
  }
}
layer {
  name: "conv2_2/sep/bn"
  type: "BatchNorm"
  bottom: "conv2_2/sep"
  top: "conv2_2/sep"
  param {
    lr_mult: 0
    decay_mult: 0
  }
  param {
    lr_mult: 0
    decay_mult: 0
  }
  param {
    lr_mult: 0
    decay_mult: 0
  }
}
layer {
  name: "conv2_2/sep/scale"
  type: "Scale"
  bottom: "conv2_2/sep"
  top: "conv2_2/sep"
  scale_param {
    filler {
      value: 1
    }
    bias_term: true
    bias_filler {
      value: 0
    }
  }
}
layer {
  name: "relu2_2/sep"
  type: "ReLU"
  bottom: "conv2_2/sep"
  top: "conv2_2/sep"
}
layer {
  name: "conv3_1/dw"
  type: "Convolution"
  bottom: "conv2_2/sep"
  top: "conv3_1/dw"
  param {
    lr_mult: 1
    decay_mult: 1
  }
  convolution_param {
    num_output: 128
    bias_term: false
    pad: 1
    kernel_size: 3
    group: 128
    stride: 1
    weight_filler {
      type: "msra"
    }
    engine: CAFFE
  }
}
layer {
  name: "conv3_1/dw/bn"
  type: "BatchNorm"
  bottom: "conv3_1/dw"
  top: "conv3_1/dw"
  param {
    lr_mult: 0
    decay_mult: 0
  }
  param {
    lr_mult: 0
    decay_mult: 0
  }
  param {
    lr_mult: 0
    decay_mult: 0
  }
}
layer {
  name: "conv3_1/dw/scale"
  type: "Scale"
  bottom: "conv3_1/dw"
  top: "conv3_1/dw"
  scale_param {
    filler {
      value: 1
    }
    bias_term: true
    bias_filler {
      value: 0
    }
  }
}
layer {
  name: "relu3_1/dw"
  type: "ReLU"
  bottom: "conv3_1/dw"
  top: "conv3_1/dw"
}
layer {
  name: "conv3_1/sep"
  type: "Convolution"
  bottom: "conv3_1/dw"
  top: "conv3_1/sep"
  param {
    lr_mult: 1
    decay_mult: 1
  }
  convolution_param {
    num_output: 128
    bias_term: false
    pad: 0
    kernel_size: 1
    stride: 1
    weight_filler {
      type: "msra"
    }
  }
}
layer {
  name: "conv3_1/sep/bn"
  type: "BatchNorm"
  bottom: "conv3_1/sep"
  top: "conv3_1/sep"
  param {
    lr_mult: 0
    decay_mult: 0
  }
  param {
    lr_mult: 0
    decay_mult: 0
  }
  param {
    lr_mult: 0
    decay_mult: 0
  }
}
layer {
  name: "conv3_1/sep/scale"
  type: "Scale"
  bottom: "conv3_1/sep"
  top: "conv3_1/sep"
  scale_param {
    filler {
      value: 1
    }
    bias_term: true
    bias_filler {
      value: 0
    }
  }
}
layer {
  name: "relu3_1/sep"
  type: "ReLU"
  bottom: "conv3_1/sep"
  top: "conv3_1/sep"
}
layer {
  name: "conv3_2/dw"
  type: "Convolution"
  bottom: "conv3_1/sep"
  top: "conv3_2/dw"
  param {
    lr_mult: 1
    decay_mult: 1
  }
  convolution_param {
    num_output: 128
    bias_term: false
    pad: 1
    kernel_size: 3
    group: 128
    stride: 2
    weight_filler {
      type: "msra"
    }
    engine: CAFFE
  }
}
layer {
  name: "conv3_2/dw/bn"
  type: "BatchNorm"
  bottom: "conv3_2/dw"
  top: "conv3_2/dw"
  param {
    lr_mult: 0
    decay_mult: 0
  }
  param {
    lr_mult: 0
    decay_mult: 0
  }
  param {
    lr_mult: 0
    decay_mult: 0
  }
}
layer {
  name: "conv3_2/dw/scale"
  type: "Scale"
  bottom: "conv3_2/dw"
  top: "conv3_2/dw"
  scale_param {
    filler {
      value: 1
    }
    bias_term: true
    bias_filler {
      value: 0
    }
  }
}
layer {
  name: "relu3_2/dw"
  type: "ReLU"
  bottom: "conv3_2/dw"
  top: "conv3_2/dw"
}
layer {
  name: "conv3_2/sep"
  type: "Convolution"
  bottom: "conv3_2/dw"
  top: "conv3_2/sep"
  param {
    lr_mult: 1
    decay_mult: 1
  }
  convolution_param {
    num_output: 256
    bias_term: false
    pad: 0
    kernel_size: 1
    stride: 1
    weight_filler {
      type: "msra"
    }
  }
}
layer {
  name: "conv3_2/sep/bn"
  type: "BatchNorm"
  bottom: "conv3_2/sep"
  top: "conv3_2/sep"
  param {
    lr_mult: 0
    decay_mult: 0
  }
  param {
    lr_mult: 0
    decay_mult: 0
  }
  param {
    lr_mult: 0
    decay_mult: 0
  }
}
layer {
  name: "conv3_2/sep/scale"
  type: "Scale"
  bottom: "conv3_2/sep"
  top: "conv3_2/sep"
  scale_param {
    filler {
      value: 1
    }
    bias_term: true
    bias_filler {
      value: 0
    }
  }
}
layer {
  name: "relu3_2/sep"
  type: "ReLU"
  bottom: "conv3_2/sep"
  top: "conv3_2/sep"
}
layer {
  name: "conv4_1/dw"
  type: "Convolution"
  bottom: "conv3_2/sep"
  top: "conv4_1/dw"
  param {
    lr_mult: 1
    decay_mult: 1
  }
  convolution_param {
    num_output: 256
    bias_term: false
    pad: 1
    kernel_size: 3
    group: 256
    stride: 1
    weight_filler {
      type: "msra"
    }
    engine: CAFFE
  }
}
layer {
  name: "conv4_1/dw/bn"
  type: "BatchNorm"
  bottom: "conv4_1/dw"
  top: "conv4_1/dw"
  param {
    lr_mult: 0
    decay_mult: 0
  }
  param {
    lr_mult: 0
    decay_mult: 0
  }
  param {
    lr_mult: 0
    decay_mult: 0
  }
}
layer {
  name: "conv4_1/dw/scale"
  type: "Scale"
  bottom: "conv4_1/dw"
  top: "conv4_1/dw"
  scale_param {
    filler {
      value: 1
    }
    bias_term: true
    bias_filler {
      value: 0
    }
  }
}
layer {
  name: "relu4_1/dw"
  type: "ReLU"
  bottom: "conv4_1/dw"
  top: "conv4_1/dw"
}
layer {
  name: "conv4_1/sep"
  type: "Convolution"
  bottom: "conv4_1/dw"
  top: "conv4_1/sep"
  param {
    lr_mult: 1
    decay_mult: 1
  }
  convolution_param {
    num_output: 256
    bias_term: false
    pad: 0
    kernel_size: 1
    stride: 1
    weight_filler {
      type: "msra"
    }
  }
}
layer {
  name: "conv4_1/sep/bn"
  type: "BatchNorm"
  bottom: "conv4_1/sep"
  top: "conv4_1/sep"
  param {
    lr_mult: 0
    decay_mult: 0
  }
  param {
    lr_mult: 0
    decay_mult: 0
  }
  param {
    lr_mult: 0
    decay_mult: 0
  }
}
layer {
  name: "conv4_1/sep/scale"
  type: "Scale"
  bottom: "conv4_1/sep"
  top: "conv4_1/sep"
  scale_param {
    filler {
      value: 1
    }
    bias_term: true
    bias_filler {
      value: 0
    }
  }
}
layer {
  name: "relu4_1/sep"
  type: "ReLU"
  bottom: "conv4_1/sep"
  top: "conv4_1/sep"
}
layer {
  name: "conv4_2/dw"
  type: "Convolution"
  bottom: "conv4_1/sep"
  top: "conv4_2/dw"
  param {
    lr_mult: 1
    decay_mult: 1
  }
  convolution_param {
    num_output: 256
    bias_term: false
    pad: 1
    kernel_size: 3
    group: 256
    stride: 2
    weight_filler {
      type: "msra"
    }
    engine: CAFFE
  }
}
layer {
  name: "conv4_2/dw/bn"
  type: "BatchNorm"
  bottom: "conv4_2/dw"
  top: "conv4_2/dw"
  param {
    lr_mult: 0
    decay_mult: 0
  }
  param {
    lr_mult: 0
    decay_mult: 0
  }
  param {
    lr_mult: 0
    decay_mult: 0
  }
}
layer {
  name: "conv4_2/dw/scale"
  type: "Scale"
  bottom: "conv4_2/dw"
  top: "conv4_2/dw"
  scale_param {
    filler {
      value: 1
    }
    bias_term: true
    bias_filler {
      value: 0
    }
  }
}
layer {
  name: "relu4_2/dw"
  type: "ReLU"
  bottom: "conv4_2/dw"
  top: "conv4_2/dw"
}
layer {
  name: "conv4_2/sep"
  type: "Convolution"
  bottom: "conv4_2/dw"
  top: "conv4_2/sep"
  param {
    lr_mult: 1
    decay_mult: 1
  }
  convolution_param {
    num_output: 512
    bias_term: false
    pad: 0
    kernel_size: 1
    stride: 1
    weight_filler {
      type: "msra"
    }
  }
}
layer {
  name: "conv4_2/sep/bn"
  type: "BatchNorm"
  bottom: "conv4_2/sep"
  top: "conv4_2/sep"
  param {
    lr_mult: 0
    decay_mult: 0
  }
  param {
    lr_mult: 0
    decay_mult: 0
  }
  param {
    lr_mult: 0
    decay_mult: 0
  }
}
layer {
  name: "conv4_2/sep/scale"
  type: "Scale"
  bottom: "conv4_2/sep"
  top: "conv4_2/sep"
  scale_param {
    filler {
      value: 1
    }
    bias_term: true
    bias_filler {
      value: 0
    }
  }
}
layer {
  name: "relu4_2/sep"
  type: "ReLU"
  bottom: "conv4_2/sep"
  top: "conv4_2/sep"
}
layer {
  name: "conv5_1/dw"
  type: "Convolution"
  bottom: "conv4_2/sep"
  top: "conv5_1/dw"
  param {
    lr_mult: 1
    decay_mult: 1
  }
  convolution_param {
    num_output: 512
    bias_term: false
    pad: 1
    kernel_size: 3
    group: 512
    stride: 1
    weight_filler {
      type: "msra"
    }
    engine: CAFFE
  }
}
layer {
  name: "conv5_1/dw/bn"
  type: "BatchNorm"
  bottom: "conv5_1/dw"
  top: "conv5_1/dw"
  param {
    lr_mult: 0
    decay_mult: 0
  }
  param {
    lr_mult: 0
    decay_mult: 0
  }
  param {
    lr_mult: 0
    decay_mult: 0
  }
}
layer {
  name: "conv5_1/dw/scale"
  type: "Scale"
  bottom: "conv5_1/dw"
  top: "conv5_1/dw"
  scale_param {
    filler {
      value: 1
    }
    bias_term: true
    bias_filler {
      value: 0
    }
  }
}
layer {
  name: "relu5_1/dw"
  type: "ReLU"
  bottom: "conv5_1/dw"
  top: "conv5_1/dw"
}
layer {
  name: "conv5_1/sep"
  type: "Convolution"
  bottom: "conv5_1/dw"
  top: "conv5_1/sep"
  param {
    lr_mult: 1
    decay_mult: 1
  }
  convolution_param {
    num_output: 512
    bias_term: false
    pad: 0
    kernel_size: 1
    stride: 1
    weight_filler {
      type: "msra"
    }
  }
}
layer {
  name: "conv5_1/sep/bn"
  type: "BatchNorm"
  bottom: "conv5_1/sep"
  top: "conv5_1/sep"
  param {
    lr_mult: 0
    decay_mult: 0
  }
  param {
    lr_mult: 0
    decay_mult: 0
  }
  param {
    lr_mult: 0
    decay_mult: 0
  }
}
layer {
  name: "conv5_1/sep/scale"
  type: "Scale"
  bottom: "conv5_1/sep"
  top: "conv5_1/sep"
  scale_param {
    filler {
      value: 1
    }
    bias_term: true
    bias_filler {
      value: 0
    }
  }
}
layer {
  name: "relu5_1/sep"
  type: "ReLU"
  bottom: "conv5_1/sep"
  top: "conv5_1/sep"
}
layer {
  name: "conv5_2/dw"
  type: "Convolution"
  bottom: "conv5_1/sep"
  top: "conv5_2/dw"
  param {
    lr_mult: 1
    decay_mult: 1
  }
  convolution_param {
    num_output: 512
    bias_term: false
    pad: 1
    kernel_size: 3
    group: 512
    stride: 1
    weight_filler {
      type: "msra"
    }
    engine: CAFFE
  }
}
layer {
  name: "conv5_2/dw/bn"
  type: "BatchNorm"
  bottom: "conv5_2/dw"
  top: "conv5_2/dw"
  param {
    lr_mult: 0
    decay_mult: 0
  }
  param {
    lr_mult: 0
    decay_mult: 0
  }
  param {
    lr_mult: 0
    decay_mult: 0
  }
}
layer {
  name: "conv5_2/dw/scale"
  type: "Scale"
  bottom: "conv5_2/dw"
  top: "conv5_2/dw"
  scale_param {
    filler {
      value: 1
    }
    bias_term: true
    bias_filler {
      value: 0
    }
  }
}
layer {
  name: "relu5_2/dw"
  type: "ReLU"
  bottom: "conv5_2/dw"
  top: "conv5_2/dw"
}
layer {
  name: "conv5_2/sep"
  type: "Convolution"
  bottom: "conv5_2/dw"
  top: "conv5_2/sep"
  param {
    lr_mult: 1
    decay_mult: 1
  }
  convolution_param {
    num_output: 512
    bias_term: false
    pad: 0
    kernel_size: 1
    stride: 1
    weight_filler {
      type: "msra"
    }
  }
}
layer {
  name: "conv5_2/sep/bn"
  type: "BatchNorm"
  bottom: "conv5_2/sep"
  top: "conv5_2/sep"
  param {
    lr_mult: 0
    decay_mult: 0
  }
  param {
    lr_mult: 0
    decay_mult: 0
  }
  param {
    lr_mult: 0
    decay_mult: 0
  }
}
layer {
  name: "conv5_2/sep/scale"
  type: "Scale"
  bottom: "conv5_2/sep"
  top: "conv5_2/sep"
  scale_param {
    filler {
      value: 1
    }
    bias_term: true
    bias_filler {
      value: 0
    }
  }
}
layer {
  name: "relu5_2/sep"
  type: "ReLU"
  bottom: "conv5_2/sep"
  top: "conv5_2/sep"
}
layer {
  name: "conv5_3/dw"
  type: "Convolution"
  bottom: "conv5_2/sep"
  top: "conv5_3/dw"
  param {
    lr_mult: 1
    decay_mult: 1
  }
  convolution_param {
    num_output: 512
    bias_term: false
    pad: 1
    kernel_size: 3
    group: 512
    stride: 1
    weight_filler {
      type: "msra"
    }
    engine: CAFFE
  }
}
layer {
  name: "conv5_3/dw/bn"
  type: "BatchNorm"
  bottom: "conv5_3/dw"
  top: "conv5_3/dw"
  param {
    lr_mult: 0
    decay_mult: 0
  }
  param {
    lr_mult: 0
    decay_mult: 0
  }
  param {
    lr_mult: 0
    decay_mult: 0
  }
}
layer {
  name: "conv5_3/dw/scale"
  type: "Scale"
  bottom: "conv5_3/dw"
  top: "conv5_3/dw"
  scale_param {
    filler {
      value: 1
    }
    bias_term: true
    bias_filler {
      value: 0
    }
  }
}
layer {
  name: "relu5_3/dw"
  type: "ReLU"
  bottom: "conv5_3/dw"
  top: "conv5_3/dw"
}
layer {
  name: "conv5_3/sep"
  type: "Convolution"
  bottom: "conv5_3/dw"
  top: "conv5_3/sep"
  param {
    lr_mult: 1
    decay_mult: 1
  }
  convolution_param {
    num_output: 512
    bias_term: false
    pad: 0
    kernel_size: 1
    stride: 1
    weight_filler {
      type: "msra"
    }
  }
}
layer {
  name: "conv5_3/sep/bn"
  type: "BatchNorm"
  bottom: "conv5_3/sep"
  top: "conv5_3/sep"
  param {
    lr_mult: 0
    decay_mult: 0
  }
  param {
    lr_mult: 0
    decay_mult: 0
  }
  param {
    lr_mult: 0
    decay_mult: 0
  }
}
layer {
  name: "conv5_3/sep/scale"
  type: "Scale"
  bottom: "conv5_3/sep"
  top: "conv5_3/sep"
  scale_param {
    filler {
      value: 1
    }
    bias_term: true
    bias_filler {
      value: 0
    }
  }
}
layer {
  name: "relu5_3/sep"
  type: "ReLU"
  bottom: "conv5_3/sep"
  top: "conv5_3/sep"
}
layer {
  name: "conv5_4/dw"
  type: "Convolution"
  bottom: "conv5_3/sep"
  top: "conv5_4/dw"
  param {
    lr_mult: 1
    decay_mult: 1
  }
  convolution_param {
    num_output: 512
    bias_term: false
    pad: 1
    kernel_size: 3
    group: 512
    stride: 1
    weight_filler {
      type: "msra"
    }
    engine: CAFFE
  }
}
layer {
  name: "conv5_4/dw/bn"
  type: "BatchNorm"
  bottom: "conv5_4/dw"
  top: "conv5_4/dw"
  param {
    lr_mult: 0
    decay_mult: 0
  }
  param {
    lr_mult: 0
    decay_mult: 0
  }
  param {
    lr_mult: 0
    decay_mult: 0
  }
}
layer {
  name: "conv5_4/dw/scale"
  type: "Scale"
  bottom: "conv5_4/dw"
  top: "conv5_4/dw"
  scale_param {
    filler {
      value: 1
    }
    bias_term: true
    bias_filler {
      value: 0
    }
  }
}
layer {
  name: "relu5_4/dw"
  type: "ReLU"
  bottom: "conv5_4/dw"
  top: "conv5_4/dw"
}
layer {
  name: "conv5_4/sep"
  type: "Convolution"
  bottom: "conv5_4/dw"
  top: "conv5_4/sep"
  param {
    lr_mult: 1
    decay_mult: 1
  }
  convolution_param {
    num_output: 512
    bias_term: false
    pad: 0
    kernel_size: 1
    stride: 1
    weight_filler {
      type: "msra"
    }
  }
}
layer {
  name: "conv5_4/sep/bn"
  type: "BatchNorm"
  bottom: "conv5_4/sep"
  top: "conv5_4/sep"
  param {
    lr_mult: 0
    decay_mult: 0
  }
  param {
    lr_mult: 0
    decay_mult: 0
  }
  param {
    lr_mult: 0
    decay_mult: 0
  }
}
layer {
  name: "conv5_4/sep/scale"
  type: "Scale"
  bottom: "conv5_4/sep"
  top: "conv5_4/sep"
  scale_param {
    filler {
      value: 1
    }
    bias_term: true
    bias_filler {
      value: 0
    }
  }
}
layer {
  name: "relu5_4/sep"
  type: "ReLU"
  bottom: "conv5_4/sep"
  top: "conv5_4/sep"
}
layer {
  name: "conv5_5/dw"
  type: "Convolution"
  bottom: "conv5_4/sep"
  top: "conv5_5/dw"
  param {
    lr_mult: 1
    decay_mult: 1
  }
  convolution_param {
    num_output: 512
    bias_term: false
    pad: 1
    kernel_size: 3
    group: 512
    stride: 1
    weight_filler {
      type: "msra"
    }
    engine: CAFFE
  }
}
layer {
  name: "conv5_5/dw/bn"
  type: "BatchNorm"
  bottom: "conv5_5/dw"
  top: "conv5_5/dw"
  param {
    lr_mult: 0
    decay_mult: 0
  }
  param {
    lr_mult: 0
    decay_mult: 0
  }
  param {
    lr_mult: 0
    decay_mult: 0
  }
}
layer {
  name: "conv5_5/dw/scale"
  type: "Scale"
  bottom: "conv5_5/dw"
  top: "conv5_5/dw"
  scale_param {
    filler {
      value: 1
    }
    bias_term: true
    bias_filler {
      value: 0
    }
  }
}
layer {
  name: "relu5_5/dw"
  type: "ReLU"
  bottom: "conv5_5/dw"
  top: "conv5_5/dw"
}
layer {
  name: "conv5_5/sep"
  type: "Convolution"
  bottom: "conv5_5/dw"
  top: "conv5_5/sep"
  param {
    lr_mult: 1
    decay_mult: 1
  }
  convolution_param {
    num_output: 512
    bias_term: false
    pad: 0
    kernel_size: 1
    stride: 1
    weight_filler {
      type: "msra"
    }
  }
}
layer {
  name: "conv5_5/sep/bn"
  type: "BatchNorm"
  bottom: "conv5_5/sep"
  top: "conv5_5/sep"
  param {
    lr_mult: 0
    decay_mult: 0
  }
  param {
    lr_mult: 0
    decay_mult: 0
  }
  param {
    lr_mult: 0
    decay_mult: 0
  }
}
layer {
  name: "conv5_5/sep/scale"
  type: "Scale"
  bottom: "conv5_5/sep"
  top: "conv5_5/sep"
  scale_param {
    filler {
      value: 1
    }
    bias_term: true
    bias_filler {
      value: 0
    }
  }
}
layer {
  name: "relu5_5/sep"
  type: "ReLU"
  bottom: "conv5_5/sep"
  top: "conv5_5/sep"
}
layer {
  name: "conv5_6/dw"
  type: "Convolution"
  bottom: "conv5_5/sep"
  top: "conv5_6/dw"
  param {
    lr_mult: 1
    decay_mult: 1
  }
  convolution_param {
    num_output: 512
    bias_term: false
    pad: 1
    kernel_size: 3
    group: 512
    stride: 2
    weight_filler {
      type: "msra"
    }
    engine: CAFFE
  }
}
layer {
  name: "conv5_6/dw/bn"
  type: "BatchNorm"
  bottom: "conv5_6/dw"
  top: "conv5_6/dw"
  param {
    lr_mult: 0
    decay_mult: 0
  }
  param {
    lr_mult: 0
    decay_mult: 0
  }
  param {
    lr_mult: 0
    decay_mult: 0
  }
}
layer {
  name: "conv5_6/dw/scale"
  type: "Scale"
  bottom: "conv5_6/dw"
  top: "conv5_6/dw"
  scale_param {
    filler {
      value: 1
    }
    bias_term: true
    bias_filler {
      value: 0
    }
  }
}
layer {
  name: "relu5_6/dw"
  type: "ReLU"
  bottom: "conv5_6/dw"
  top: "conv5_6/dw"
}
layer {
  name: "conv5_6/sep"
  type: "Convolution"
  bottom: "conv5_6/dw"
  top: "conv5_6/sep"
  param {
    lr_mult: 1
    decay_mult: 1
  }
  convolution_param {
    num_output: 1024
    bias_term: false
    pad: 0
    kernel_size: 1
    stride: 1
    weight_filler {
      type: "msra"
    }
  }
}
layer {
  name: "conv5_6/sep/bn"
  type: "BatchNorm"
  bottom: "conv5_6/sep"
  top: "conv5_6/sep"
  param {
    lr_mult: 0
    decay_mult: 0
  }
  param {
    lr_mult: 0
    decay_mult: 0
  }
  param {
    lr_mult: 0
    decay_mult: 0
  }
}
layer {
  name: "conv5_6/sep/scale"
  type: "Scale"
  bottom: "conv5_6/sep"
  top: "conv5_6/sep"
  scale_param {
    filler {
      value: 1
    }
    bias_term: true
    bias_filler {
      value: 0
    }
  }
}
layer {
  name: "relu5_6/sep"
  type: "ReLU"
  bottom: "conv5_6/sep"
  top: "conv5_6/sep"
}
layer {
  name: "conv6/dw"
  type: "Convolution"
  bottom: "conv5_6/sep"
  top: "conv6/dw"
  param {
    lr_mult: 1
    decay_mult: 1
  }
  convolution_param {
    num_output: 1024
    bias_term: false
    pad: 1
    kernel_size: 3
    group: 1024
    stride: 1
    weight_filler {
      type: "msra"
    }
    engine: CAFFE
  }
}
layer {
  name: "conv6/dw/bn"
  type: "BatchNorm"
  bottom: "conv6/dw"
  top: "conv6/dw"
  param {
    lr_mult: 0
    decay_mult: 0
  }
  param {
    lr_mult: 0
    decay_mult: 0
  }
  param {
    lr_mult: 0
    decay_mult: 0
  }
}
layer {
  name: "conv6/dw/scale"
  type: "Scale"
  bottom: "conv6/dw"
  top: "conv6/dw"
  scale_param {
    filler {
      value: 1
    }
    bias_term: true
    bias_filler {
      value: 0
    }
  }
}
layer {
  name: "relu6/dw"
  type: "ReLU"
  bottom: "conv6/dw"
  top: "conv6/dw"
}
layer {
  name: "conv6/sep"
  type: "Convolution"
  bottom: "conv6/dw"
  top: "conv6/sep"
  param {
    lr_mult: 1
    decay_mult: 1
  }
  convolution_param {
    num_output: 1024
    bias_term: false
    pad: 0
    kernel_size: 1
    stride: 1
    weight_filler {
      type: "msra"
    }
  }
}
layer {
  name: "conv6/sep/bn"
  type: "BatchNorm"
  bottom: "conv6/sep"
  top: "conv6/sep"
  param {
    lr_mult: 0
    decay_mult: 0
  }
  param {
    lr_mult: 0
    decay_mult: 0
  }
  param {
    lr_mult: 0
    decay_mult: 0
  }
}
layer {
  name: "conv6/sep/scale"
  type: "Scale"
  bottom: "conv6/sep"
  top: "conv6/sep"
  scale_param {
    filler {
      value: 1
    }
    bias_term: true
    bias_filler {
      value: 0
    }
  }
}
layer {
  name: "relu6/sep"
  type: "ReLU"
  bottom: "conv6/sep"
  top: "conv6/sep"
}
layer {
  name: "pool6"
  type: "Pooling"
  bottom: "conv6/sep"
  top: "pool6"
  pooling_param {
    pool: AVE
    global_pooling: true
  }
}
layer {
  name: "fc7"
  type: "Convolution"
  bottom: "pool6"
  top: "fc7"
  param {
    lr_mult: 1
    decay_mult: 1
  }
  param {
    lr_mult: 2
    decay_mult: 0
  }
  convolution_param {
    num_output: 1000
    kernel_size: 1
    weight_filler {
      type: "msra"
    }
    bias_filler {
      type: "constant"
      value: 0
    }
  }
}
layer {
  name: "loss"
  type: "SoftmaxWithLoss"
  bottom: "fc7"
  bottom: "label"
  top: "loss"
  loss_weight: 1
}
layer {
  name: "loss/top-1"
  type: "Accuracy"
  bottom: "fc7"
  bottom: "label"
  top: "loss/top-1"
  include {
    phase: TEST
  }
}
layer {
  name: "loss/top-5"
  type: "Accuracy"
  bottom: "fc7"
  bottom: "label"
  top: "loss3/top-5"
  include {
    phase: TEST
  }
  accuracy_param {
    top_k: 5
  }
}
I0613 09:34:26.198546 35302 layer_factory.hpp:74] Creating layer data
I0613 09:34:26.198559 35302 net.cpp:99] Creating Layer data
I0613 09:34:26.198562 35302 net.cpp:435] data -> data
I0613 09:34:26.198570 35302 net.cpp:435] data -> label
I0613 09:34:26.198575 35302 net.cpp:163] Setting up data
I0613 09:34:26.198652 35302 db_lmdb.cpp:22] Opened lmdb examples/imagenet/ilsvrc12_val_lmdb
I0613 09:34:26.198968 35302 data_layer.cpp:55] output data size: 50,3,224,224
I0613 09:34:26.199028 35302 net.cpp:170] Top shape: 50 3 224 224 (7526400)
I0613 09:34:26.199035 35302 net.cpp:170] Top shape: 50 (50)
I0613 09:34:26.199038 35302 layer_factory.hpp:74] Creating layer label_data_1_split
I0613 09:34:26.199048 35302 net.cpp:99] Creating Layer label_data_1_split
I0613 09:34:26.199050 35302 net.cpp:479] label_data_1_split <- label
I0613 09:34:26.199054 35302 net.cpp:130] This layer is inheriting previous layer's sync mode: 1
I0613 09:34:26.199059 35302 net.cpp:435] label_data_1_split -> label_data_1_split_0
I0613 09:34:26.199076 35302 net.cpp:435] label_data_1_split -> label_data_1_split_1
I0613 09:34:26.199081 35302 net.cpp:435] label_data_1_split -> label_data_1_split_2
I0613 09:34:26.199086 35302 net.cpp:163] Setting up label_data_1_split
I0613 09:34:26.199095 35302 net.cpp:170] Top shape: 50 (50)
I0613 09:34:26.199097 35302 net.cpp:170] Top shape: 50 (50)
I0613 09:34:26.199100 35302 net.cpp:170] Top shape: 50 (50)
I0613 09:34:26.199102 35302 layer_factory.hpp:74] Creating layer conv1
I0613 09:34:26.199110 35302 net.cpp:99] Creating Layer conv1
I0613 09:34:26.199111 35302 net.cpp:479] conv1 <- data
I0613 09:34:26.199115 35302 net.cpp:130] This layer is inheriting previous layer's sync mode: 1
I0613 09:34:26.199118 35302 net.cpp:435] conv1 -> conv1
I0613 09:34:26.199122 35302 net.cpp:163] Setting up conv1
I0613 09:34:26.323024 35302 net.cpp:170] Top shape: 50 32 112 112 (20070400)
I0613 09:34:26.323046 35302 layer_factory.hpp:74] Creating layer conv1/bn
I0613 09:34:26.323055 35302 net.cpp:99] Creating Layer conv1/bn
I0613 09:34:26.323058 35302 net.cpp:479] conv1/bn <- conv1
I0613 09:34:26.323063 35302 net.cpp:130] This layer is inheriting previous layer's sync mode: 1
I0613 09:34:26.323066 35302 net.cpp:424] conv1/bn -> conv1 (in-place)
I0613 09:34:26.323072 35302 net.cpp:163] Setting up conv1/bn
I0613 09:34:26.323092 35302 net.cpp:170] Top shape: 50 32 112 112 (20070400)
I0613 09:34:26.323099 35302 layer_factory.hpp:74] Creating layer conv1/scale
I0613 09:34:26.323108 35302 net.cpp:99] Creating Layer conv1/scale
I0613 09:34:26.323110 35302 net.cpp:479] conv1/scale <- conv1
I0613 09:34:26.323114 35302 net.cpp:130] This layer is inheriting previous layer's sync mode: 1
I0613 09:34:26.323117 35302 net.cpp:424] conv1/scale -> conv1 (in-place)
I0613 09:34:26.323122 35302 net.cpp:163] Setting up conv1/scale
I0613 09:34:26.323128 35302 layer_factory.hpp:74] Creating layer conv1/scale
I0613 09:34:26.323158 35302 net.cpp:170] Top shape: 50 32 112 112 (20070400)
I0613 09:34:26.323165 35302 layer_factory.hpp:74] Creating layer relu1
I0613 09:34:26.323171 35302 net.cpp:99] Creating Layer relu1
I0613 09:34:26.323174 35302 net.cpp:479] relu1 <- conv1
I0613 09:34:26.323177 35302 net.cpp:130] This layer is inheriting previous layer's sync mode: 1
I0613 09:34:26.323181 35302 net.cpp:424] relu1 -> conv1 (in-place)
I0613 09:34:26.323184 35302 net.cpp:163] Setting up relu1
I0613 09:34:26.323385 35302 net.cpp:170] Top shape: 50 32 112 112 (20070400)
I0613 09:34:26.323392 35302 layer_factory.hpp:74] Creating layer conv2_1/dw
I0613 09:34:26.323400 35302 net.cpp:99] Creating Layer conv2_1/dw
I0613 09:34:26.323402 35302 net.cpp:479] conv2_1/dw <- conv1
I0613 09:34:26.323405 35302 net.cpp:130] This layer is inheriting previous layer's sync mode: 1
I0613 09:34:26.323410 35302 net.cpp:435] conv2_1/dw -> conv2_1/dw
I0613 09:34:26.323416 35302 net.cpp:163] Setting up conv2_1/dw
I0613 09:34:26.323431 35302 net.cpp:170] Top shape: 50 32 112 112 (20070400)
I0613 09:34:26.323436 35302 layer_factory.hpp:74] Creating layer conv2_1/dw/bn
I0613 09:34:26.323442 35302 net.cpp:99] Creating Layer conv2_1/dw/bn
I0613 09:34:26.323444 35302 net.cpp:479] conv2_1/dw/bn <- conv2_1/dw
I0613 09:34:26.323447 35302 net.cpp:130] This layer is inheriting previous layer's sync mode: 1
I0613 09:34:26.323451 35302 net.cpp:424] conv2_1/dw/bn -> conv2_1/dw (in-place)
I0613 09:34:26.323456 35302 net.cpp:163] Setting up conv2_1/dw/bn
I0613 09:34:26.323482 35302 net.cpp:170] Top shape: 50 32 112 112 (20070400)
I0613 09:34:26.323492 35302 layer_factory.hpp:74] Creating layer conv2_1/dw/scale
I0613 09:34:26.323498 35302 net.cpp:99] Creating Layer conv2_1/dw/scale
I0613 09:34:26.323501 35302 net.cpp:479] conv2_1/dw/scale <- conv2_1/dw
I0613 09:34:26.323504 35302 net.cpp:130] This layer is inheriting previous layer's sync mode: 1
I0613 09:34:26.323508 35302 net.cpp:424] conv2_1/dw/scale -> conv2_1/dw (in-place)
I0613 09:34:26.323511 35302 net.cpp:163] Setting up conv2_1/dw/scale
I0613 09:34:26.323518 35302 layer_factory.hpp:74] Creating layer conv2_1/dw/scale
I0613 09:34:26.323603 35302 net.cpp:170] Top shape: 50 32 112 112 (20070400)
I0613 09:34:26.323611 35302 layer_factory.hpp:74] Creating layer relu2_1/dw
I0613 09:34:26.323622 35302 net.cpp:99] Creating Layer relu2_1/dw
I0613 09:34:26.323626 35302 net.cpp:479] relu2_1/dw <- conv2_1/dw
I0613 09:34:26.323629 35302 net.cpp:130] This layer is inheriting previous layer's sync mode: 1
I0613 09:34:26.323632 35302 net.cpp:424] relu2_1/dw -> conv2_1/dw (in-place)
I0613 09:34:26.323635 35302 net.cpp:163] Setting up relu2_1/dw
I0613 09:34:26.339054 35302 net.cpp:170] Top shape: 50 32 112 112 (20070400)
I0613 09:34:26.339066 35302 layer_factory.hpp:74] Creating layer conv2_1/sep
I0613 09:34:26.339073 35302 net.cpp:99] Creating Layer conv2_1/sep
I0613 09:34:26.339076 35302 net.cpp:479] conv2_1/sep <- conv2_1/dw
I0613 09:34:26.339082 35302 net.cpp:130] This layer is inheriting previous layer's sync mode: 1
I0613 09:34:26.339087 35302 net.cpp:435] conv2_1/sep -> conv2_1/sep
I0613 09:34:26.339092 35302 net.cpp:163] Setting up conv2_1/sep
I0613 09:34:26.546059 35302 net.cpp:170] Top shape: 50 64 112 112 (40140800)
I0613 09:34:26.546082 35302 layer_factory.hpp:74] Creating layer conv2_1/sep/bn
I0613 09:34:26.546093 35302 net.cpp:99] Creating Layer conv2_1/sep/bn
I0613 09:34:26.546097 35302 net.cpp:479] conv2_1/sep/bn <- conv2_1/sep
I0613 09:34:26.546103 35302 net.cpp:130] This layer is inheriting previous layer's sync mode: 1
I0613 09:34:26.546108 35302 net.cpp:424] conv2_1/sep/bn -> conv2_1/sep (in-place)
I0613 09:34:26.546113 35302 net.cpp:163] Setting up conv2_1/sep/bn
I0613 09:34:26.546159 35302 net.cpp:170] Top shape: 50 64 112 112 (40140800)
I0613 09:34:26.546165 35302 layer_factory.hpp:74] Creating layer conv2_1/sep/scale
I0613 09:34:26.546172 35302 net.cpp:99] Creating Layer conv2_1/sep/scale
I0613 09:34:26.546175 35302 net.cpp:479] conv2_1/sep/scale <- conv2_1/sep
I0613 09:34:26.546177 35302 net.cpp:130] This layer is inheriting previous layer's sync mode: 1
I0613 09:34:26.546180 35302 net.cpp:424] conv2_1/sep/scale -> conv2_1/sep (in-place)
I0613 09:34:26.546186 35302 net.cpp:163] Setting up conv2_1/sep/scale
I0613 09:34:26.546193 35302 layer_factory.hpp:74] Creating layer conv2_1/sep/scale
I0613 09:34:26.546255 35302 net.cpp:170] Top shape: 50 64 112 112 (40140800)
I0613 09:34:26.546267 35302 layer_factory.hpp:74] Creating layer relu2_1/sep
I0613 09:34:26.546272 35302 net.cpp:99] Creating Layer relu2_1/sep
I0613 09:34:26.546275 35302 net.cpp:479] relu2_1/sep <- conv2_1/sep
I0613 09:34:26.546278 35302 net.cpp:130] This layer is inheriting previous layer's sync mode: 1
I0613 09:34:26.546281 35302 net.cpp:424] relu2_1/sep -> conv2_1/sep (in-place)
I0613 09:34:26.546285 35302 net.cpp:163] Setting up relu2_1/sep
I0613 09:34:26.546484 35302 net.cpp:170] Top shape: 50 64 112 112 (40140800)
I0613 09:34:26.546491 35302 layer_factory.hpp:74] Creating layer conv2_2/dw
I0613 09:34:26.546499 35302 net.cpp:99] Creating Layer conv2_2/dw
I0613 09:34:26.546504 35302 net.cpp:479] conv2_2/dw <- conv2_1/sep
I0613 09:34:26.546506 35302 net.cpp:130] This layer is inheriting previous layer's sync mode: 1
I0613 09:34:26.546510 35302 net.cpp:435] conv2_2/dw -> conv2_2/dw
I0613 09:34:26.546519 35302 net.cpp:163] Setting up conv2_2/dw
I0613 09:34:26.546540 35302 net.cpp:170] Top shape: 50 64 56 56 (10035200)
I0613 09:34:26.546545 35302 layer_factory.hpp:74] Creating layer conv2_2/dw/bn
I0613 09:34:26.546550 35302 net.cpp:99] Creating Layer conv2_2/dw/bn
I0613 09:34:26.546552 35302 net.cpp:479] conv2_2/dw/bn <- conv2_2/dw
I0613 09:34:26.546556 35302 net.cpp:130] This layer is inheriting previous layer's sync mode: 1
I0613 09:34:26.546560 35302 net.cpp:424] conv2_2/dw/bn -> conv2_2/dw (in-place)
I0613 09:34:26.546562 35302 net.cpp:163] Setting up conv2_2/dw/bn
I0613 09:34:26.546576 35302 net.cpp:170] Top shape: 50 64 56 56 (10035200)
I0613 09:34:26.546583 35302 layer_factory.hpp:74] Creating layer conv2_2/dw/scale
I0613 09:34:26.546591 35302 net.cpp:99] Creating Layer conv2_2/dw/scale
I0613 09:34:26.546594 35302 net.cpp:479] conv2_2/dw/scale <- conv2_2/dw
I0613 09:34:26.546612 35302 net.cpp:130] This layer is inheriting previous layer's sync mode: 1
I0613 09:34:26.546617 35302 net.cpp:424] conv2_2/dw/scale -> conv2_2/dw (in-place)
I0613 09:34:26.546620 35302 net.cpp:163] Setting up conv2_2/dw/scale
I0613 09:34:26.546627 35302 layer_factory.hpp:74] Creating layer conv2_2/dw/scale
I0613 09:34:26.546645 35302 net.cpp:170] Top shape: 50 64 56 56 (10035200)
I0613 09:34:26.546653 35302 layer_factory.hpp:74] Creating layer relu2_2/dw
I0613 09:34:26.546658 35302 net.cpp:99] Creating Layer relu2_2/dw
I0613 09:34:26.546659 35302 net.cpp:479] relu2_2/dw <- conv2_2/dw
I0613 09:34:26.546663 35302 net.cpp:130] This layer is inheriting previous layer's sync mode: 1
I0613 09:34:26.546665 35302 net.cpp:424] relu2_2/dw -> conv2_2/dw (in-place)
I0613 09:34:26.546669 35302 net.cpp:163] Setting up relu2_2/dw
I0613 09:34:26.551585 35302 net.cpp:170] Top shape: 50 64 56 56 (10035200)
I0613 09:34:26.551600 35302 layer_factory.hpp:74] Creating layer conv2_2/sep
I0613 09:34:26.551611 35302 net.cpp:99] Creating Layer conv2_2/sep
I0613 09:34:26.551615 35302 net.cpp:479] conv2_2/sep <- conv2_2/dw
I0613 09:34:26.551620 35302 net.cpp:130] This layer is inheriting previous layer's sync mode: 1
I0613 09:34:26.551627 35302 net.cpp:435] conv2_2/sep -> conv2_2/sep
I0613 09:34:26.551636 35302 net.cpp:163] Setting up conv2_2/sep
I0613 09:34:26.681372 35302 net.cpp:170] Top shape: 50 128 56 56 (20070400)
I0613 09:34:26.681414 35302 layer_factory.hpp:74] Creating layer conv2_2/sep/bn
I0613 09:34:26.681427 35302 net.cpp:99] Creating Layer conv2_2/sep/bn
I0613 09:34:26.681432 35302 net.cpp:479] conv2_2/sep/bn <- conv2_2/sep
I0613 09:34:26.681438 35302 net.cpp:130] This layer is inheriting previous layer's sync mode: 1
I0613 09:34:26.681442 35302 net.cpp:424] conv2_2/sep/bn -> conv2_2/sep (in-place)
I0613 09:34:26.681450 35302 net.cpp:163] Setting up conv2_2/sep/bn
I0613 09:34:26.681480 35302 net.cpp:170] Top shape: 50 128 56 56 (20070400)
I0613 09:34:26.681488 35302 layer_factory.hpp:74] Creating layer conv2_2/sep/scale
I0613 09:34:26.681495 35302 net.cpp:99] Creating Layer conv2_2/sep/scale
I0613 09:34:26.681499 35302 net.cpp:479] conv2_2/sep/scale <- conv2_2/sep
I0613 09:34:26.681501 35302 net.cpp:130] This layer is inheriting previous layer's sync mode: 1
I0613 09:34:26.681506 35302 net.cpp:424] conv2_2/sep/scale -> conv2_2/sep (in-place)
I0613 09:34:26.681511 35302 net.cpp:163] Setting up conv2_2/sep/scale
I0613 09:34:26.681520 35302 layer_factory.hpp:74] Creating layer conv2_2/sep/scale
I0613 09:34:26.681541 35302 net.cpp:170] Top shape: 50 128 56 56 (20070400)
I0613 09:34:26.681546 35302 layer_factory.hpp:74] Creating layer relu2_2/sep
I0613 09:34:26.681552 35302 net.cpp:99] Creating Layer relu2_2/sep
I0613 09:34:26.681555 35302 net.cpp:479] relu2_2/sep <- conv2_2/sep
I0613 09:34:26.681557 35302 net.cpp:130] This layer is inheriting previous layer's sync mode: 1
I0613 09:34:26.681560 35302 net.cpp:424] relu2_2/sep -> conv2_2/sep (in-place)
I0613 09:34:26.681563 35302 net.cpp:163] Setting up relu2_2/sep
I0613 09:34:26.681793 35302 net.cpp:170] Top shape: 50 128 56 56 (20070400)
I0613 09:34:26.681802 35302 layer_factory.hpp:74] Creating layer conv3_1/dw
I0613 09:34:26.681809 35302 net.cpp:99] Creating Layer conv3_1/dw
I0613 09:34:26.681813 35302 net.cpp:479] conv3_1/dw <- conv2_2/sep
I0613 09:34:26.681816 35302 net.cpp:130] This layer is inheriting previous layer's sync mode: 1
I0613 09:34:26.681823 35302 net.cpp:435] conv3_1/dw -> conv3_1/dw
I0613 09:34:26.681828 35302 net.cpp:163] Setting up conv3_1/dw
I0613 09:34:26.681861 35302 net.cpp:170] Top shape: 50 128 56 56 (20070400)
I0613 09:34:26.681867 35302 layer_factory.hpp:74] Creating layer conv3_1/dw/bn
I0613 09:34:26.681872 35302 net.cpp:99] Creating Layer conv3_1/dw/bn
I0613 09:34:26.681874 35302 net.cpp:479] conv3_1/dw/bn <- conv3_1/dw
I0613 09:34:26.681879 35302 net.cpp:130] This layer is inheriting previous layer's sync mode: 1
I0613 09:34:26.681881 35302 net.cpp:424] conv3_1/dw/bn -> conv3_1/dw (in-place)
I0613 09:34:26.681885 35302 net.cpp:163] Setting up conv3_1/dw/bn
I0613 09:34:26.681926 35302 net.cpp:170] Top shape: 50 128 56 56 (20070400)
I0613 09:34:26.681941 35302 layer_factory.hpp:74] Creating layer conv3_1/dw/scale
I0613 09:34:26.681947 35302 net.cpp:99] Creating Layer conv3_1/dw/scale
I0613 09:34:26.681951 35302 net.cpp:479] conv3_1/dw/scale <- conv3_1/dw
I0613 09:34:26.681953 35302 net.cpp:130] This layer is inheriting previous layer's sync mode: 1
I0613 09:34:26.681957 35302 net.cpp:424] conv3_1/dw/scale -> conv3_1/dw (in-place)
I0613 09:34:26.681960 35302 net.cpp:163] Setting up conv3_1/dw/scale
I0613 09:34:26.681967 35302 layer_factory.hpp:74] Creating layer conv3_1/dw/scale
I0613 09:34:26.681988 35302 net.cpp:170] Top shape: 50 128 56 56 (20070400)
I0613 09:34:26.681993 35302 layer_factory.hpp:74] Creating layer relu3_1/dw
I0613 09:34:26.681998 35302 net.cpp:99] Creating Layer relu3_1/dw
I0613 09:34:26.682000 35302 net.cpp:479] relu3_1/dw <- conv3_1/dw
I0613 09:34:26.682003 35302 net.cpp:130] This layer is inheriting previous layer's sync mode: 1
I0613 09:34:26.682008 35302 net.cpp:424] relu3_1/dw -> conv3_1/dw (in-place)
I0613 09:34:26.682010 35302 net.cpp:163] Setting up relu3_1/dw
I0613 09:34:26.683128 35302 net.cpp:170] Top shape: 50 128 56 56 (20070400)
I0613 09:34:26.683138 35302 layer_factory.hpp:74] Creating layer conv3_1/sep
I0613 09:34:26.683163 35302 net.cpp:99] Creating Layer conv3_1/sep
I0613 09:34:26.683166 35302 net.cpp:479] conv3_1/sep <- conv3_1/dw
I0613 09:34:26.683171 35302 net.cpp:130] This layer is inheriting previous layer's sync mode: 1
I0613 09:34:26.683174 35302 net.cpp:435] conv3_1/sep -> conv3_1/sep
I0613 09:34:26.683179 35302 net.cpp:163] Setting up conv3_1/sep
I0613 09:34:26.830211 35302 net.cpp:170] Top shape: 50 128 56 56 (20070400)
I0613 09:34:26.830245 35302 layer_factory.hpp:74] Creating layer conv3_1/sep/bn
I0613 09:34:26.830255 35302 net.cpp:99] Creating Layer conv3_1/sep/bn
I0613 09:34:26.830260 35302 net.cpp:479] conv3_1/sep/bn <- conv3_1/sep
I0613 09:34:26.830266 35302 net.cpp:130] This layer is inheriting previous layer's sync mode: 1
I0613 09:34:26.830271 35302 net.cpp:424] conv3_1/sep/bn -> conv3_1/sep (in-place)
I0613 09:34:26.830278 35302 net.cpp:163] Setting up conv3_1/sep/bn
I0613 09:34:26.830302 35302 net.cpp:170] Top shape: 50 128 56 56 (20070400)
I0613 09:34:26.830308 35302 layer_factory.hpp:74] Creating layer conv3_1/sep/scale
I0613 09:34:26.830317 35302 net.cpp:99] Creating Layer conv3_1/sep/scale
I0613 09:34:26.830319 35302 net.cpp:479] conv3_1/sep/scale <- conv3_1/sep
I0613 09:34:26.830323 35302 net.cpp:130] This layer is inheriting previous layer's sync mode: 1
I0613 09:34:26.830327 35302 net.cpp:424] conv3_1/sep/scale -> conv3_1/sep (in-place)
I0613 09:34:26.830332 35302 net.cpp:163] Setting up conv3_1/sep/scale
I0613 09:34:26.830340 35302 layer_factory.hpp:74] Creating layer conv3_1/sep/scale
I0613 09:34:26.830368 35302 net.cpp:170] Top shape: 50 128 56 56 (20070400)
I0613 09:34:26.830374 35302 layer_factory.hpp:74] Creating layer relu3_1/sep
I0613 09:34:26.830380 35302 net.cpp:99] Creating Layer relu3_1/sep
I0613 09:34:26.830382 35302 net.cpp:479] relu3_1/sep <- conv3_1/sep
I0613 09:34:26.830385 35302 net.cpp:130] This layer is inheriting previous layer's sync mode: 1
I0613 09:34:26.830389 35302 net.cpp:424] relu3_1/sep -> conv3_1/sep (in-place)
I0613 09:34:26.830391 35302 net.cpp:163] Setting up relu3_1/sep
I0613 09:34:26.834434 35302 net.cpp:170] Top shape: 50 128 56 56 (20070400)
I0613 09:34:26.834446 35302 layer_factory.hpp:74] Creating layer conv3_2/dw
I0613 09:34:26.834456 35302 net.cpp:99] Creating Layer conv3_2/dw
I0613 09:34:26.834460 35302 net.cpp:479] conv3_2/dw <- conv3_1/sep
I0613 09:34:26.834465 35302 net.cpp:130] This layer is inheriting previous layer's sync mode: 1
I0613 09:34:26.834468 35302 net.cpp:435] conv3_2/dw -> conv3_2/dw
I0613 09:34:26.834476 35302 net.cpp:163] Setting up conv3_2/dw
I0613 09:34:26.834506 35302 net.cpp:170] Top shape: 50 128 28 28 (5017600)
I0613 09:34:26.834511 35302 layer_factory.hpp:74] Creating layer conv3_2/dw/bn
I0613 09:34:26.834516 35302 net.cpp:99] Creating Layer conv3_2/dw/bn
I0613 09:34:26.834558 35302 net.cpp:479] conv3_2/dw/bn <- conv3_2/dw
I0613 09:34:26.834561 35302 net.cpp:130] This layer is inheriting previous layer's sync mode: 1
I0613 09:34:26.834565 35302 net.cpp:424] conv3_2/dw/bn -> conv3_2/dw (in-place)
I0613 09:34:26.834569 35302 net.cpp:163] Setting up conv3_2/dw/bn
I0613 09:34:26.834583 35302 net.cpp:170] Top shape: 50 128 28 28 (5017600)
I0613 09:34:26.834590 35302 layer_factory.hpp:74] Creating layer conv3_2/dw/scale
I0613 09:34:26.834607 35302 net.cpp:99] Creating Layer conv3_2/dw/scale
I0613 09:34:26.834610 35302 net.cpp:479] conv3_2/dw/scale <- conv3_2/dw
I0613 09:34:26.834614 35302 net.cpp:130] This layer is inheriting previous layer's sync mode: 1
I0613 09:34:26.834617 35302 net.cpp:424] conv3_2/dw/scale -> conv3_2/dw (in-place)
I0613 09:34:26.834621 35302 net.cpp:163] Setting up conv3_2/dw/scale
I0613 09:34:26.834627 35302 layer_factory.hpp:74] Creating layer conv3_2/dw/scale
I0613 09:34:26.834643 35302 net.cpp:170] Top shape: 50 128 28 28 (5017600)
I0613 09:34:26.834650 35302 layer_factory.hpp:74] Creating layer relu3_2/dw
I0613 09:34:26.834652 35302 net.cpp:99] Creating Layer relu3_2/dw
I0613 09:34:26.834656 35302 net.cpp:479] relu3_2/dw <- conv3_2/dw
I0613 09:34:26.834659 35302 net.cpp:130] This layer is inheriting previous layer's sync mode: 1
I0613 09:34:26.834662 35302 net.cpp:424] relu3_2/dw -> conv3_2/dw (in-place)
I0613 09:34:26.834668 35302 net.cpp:163] Setting up relu3_2/dw
I0613 09:34:26.834877 35302 net.cpp:170] Top shape: 50 128 28 28 (5017600)
I0613 09:34:26.834885 35302 layer_factory.hpp:74] Creating layer conv3_2/sep
I0613 09:34:26.834893 35302 net.cpp:99] Creating Layer conv3_2/sep
I0613 09:34:26.834897 35302 net.cpp:479] conv3_2/sep <- conv3_2/dw
I0613 09:34:26.834900 35302 net.cpp:130] This layer is inheriting previous layer's sync mode: 1
I0613 09:34:26.834903 35302 net.cpp:435] conv3_2/sep -> conv3_2/sep
I0613 09:34:26.834909 35302 net.cpp:163] Setting up conv3_2/sep
I0613 09:34:26.949008 35302 net.cpp:170] Top shape: 50 256 28 28 (10035200)
I0613 09:34:26.949036 35302 layer_factory.hpp:74] Creating layer conv3_2/sep/bn
I0613 09:34:26.949049 35302 net.cpp:99] Creating Layer conv3_2/sep/bn
I0613 09:34:26.949057 35302 net.cpp:479] conv3_2/sep/bn <- conv3_2/sep
I0613 09:34:26.949064 35302 net.cpp:130] This layer is inheriting previous layer's sync mode: 1
I0613 09:34:26.949074 35302 net.cpp:424] conv3_2/sep/bn -> conv3_2/sep (in-place)
I0613 09:34:26.949082 35302 net.cpp:163] Setting up conv3_2/sep/bn
I0613 09:34:26.949110 35302 net.cpp:170] Top shape: 50 256 28 28 (10035200)
I0613 09:34:26.949126 35302 layer_factory.hpp:74] Creating layer conv3_2/sep/scale
I0613 09:34:26.949137 35302 net.cpp:99] Creating Layer conv3_2/sep/scale
I0613 09:34:26.949142 35302 net.cpp:479] conv3_2/sep/scale <- conv3_2/sep
I0613 09:34:26.949149 35302 net.cpp:130] This layer is inheriting previous layer's sync mode: 1
I0613 09:34:26.949156 35302 net.cpp:424] conv3_2/sep/scale -> conv3_2/sep (in-place)
I0613 09:34:26.949165 35302 net.cpp:163] Setting up conv3_2/sep/scale
I0613 09:34:26.949178 35302 layer_factory.hpp:74] Creating layer conv3_2/sep/scale
I0613 09:34:26.949210 35302 net.cpp:170] Top shape: 50 256 28 28 (10035200)
I0613 09:34:26.949223 35302 layer_factory.hpp:74] Creating layer relu3_2/sep
I0613 09:34:26.949230 35302 net.cpp:99] Creating Layer relu3_2/sep
I0613 09:34:26.949235 35302 net.cpp:479] relu3_2/sep <- conv3_2/sep
I0613 09:34:26.949242 35302 net.cpp:130] This layer is inheriting previous layer's sync mode: 1
I0613 09:34:26.949249 35302 net.cpp:424] relu3_2/sep -> conv3_2/sep (in-place)
I0613 09:34:26.949254 35302 net.cpp:163] Setting up relu3_2/sep
I0613 09:34:26.953140 35302 net.cpp:170] Top shape: 50 256 28 28 (10035200)
I0613 09:34:26.953157 35302 layer_factory.hpp:74] Creating layer conv4_1/dw
I0613 09:34:26.953172 35302 net.cpp:99] Creating Layer conv4_1/dw
I0613 09:34:26.953177 35302 net.cpp:479] conv4_1/dw <- conv3_2/sep
I0613 09:34:26.953186 35302 net.cpp:130] This layer is inheriting previous layer's sync mode: 1
I0613 09:34:26.953228 35302 net.cpp:435] conv4_1/dw -> conv4_1/dw
I0613 09:34:26.953240 35302 net.cpp:163] Setting up conv4_1/dw
I0613 09:34:26.953306 35302 net.cpp:170] Top shape: 50 256 28 28 (10035200)
I0613 09:34:26.953317 35302 layer_factory.hpp:74] Creating layer conv4_1/dw/bn
I0613 09:34:26.953330 35302 net.cpp:99] Creating Layer conv4_1/dw/bn
I0613 09:34:26.953336 35302 net.cpp:479] conv4_1/dw/bn <- conv4_1/dw
I0613 09:34:26.953341 35302 net.cpp:130] This layer is inheriting previous layer's sync mode: 1
I0613 09:34:26.953349 35302 net.cpp:424] conv4_1/dw/bn -> conv4_1/dw (in-place)
I0613 09:34:26.953358 35302 net.cpp:163] Setting up conv4_1/dw/bn
I0613 09:34:26.953380 35302 net.cpp:170] Top shape: 50 256 28 28 (10035200)
I0613 09:34:26.953394 35302 layer_factory.hpp:74] Creating layer conv4_1/dw/scale
I0613 09:34:26.953407 35302 net.cpp:99] Creating Layer conv4_1/dw/scale
I0613 09:34:26.953413 35302 net.cpp:479] conv4_1/dw/scale <- conv4_1/dw
I0613 09:34:26.953418 35302 net.cpp:130] This layer is inheriting previous layer's sync mode: 1
I0613 09:34:26.953424 35302 net.cpp:424] conv4_1/dw/scale -> conv4_1/dw (in-place)
I0613 09:34:26.953431 35302 net.cpp:163] Setting up conv4_1/dw/scale
I0613 09:34:26.953446 35302 layer_factory.hpp:74] Creating layer conv4_1/dw/scale
I0613 09:34:26.953474 35302 net.cpp:170] Top shape: 50 256 28 28 (10035200)
I0613 09:34:26.953485 35302 layer_factory.hpp:74] Creating layer relu4_1/dw
I0613 09:34:26.953492 35302 net.cpp:99] Creating Layer relu4_1/dw
I0613 09:34:26.953498 35302 net.cpp:479] relu4_1/dw <- conv4_1/dw
I0613 09:34:26.953503 35302 net.cpp:130] This layer is inheriting previous layer's sync mode: 1
I0613 09:34:26.953510 35302 net.cpp:424] relu4_1/dw -> conv4_1/dw (in-place)
I0613 09:34:26.953516 35302 net.cpp:163] Setting up relu4_1/dw
I0613 09:34:26.953819 35302 net.cpp:170] Top shape: 50 256 28 28 (10035200)
I0613 09:34:26.953831 35302 layer_factory.hpp:74] Creating layer conv4_1/sep
I0613 09:34:26.953841 35302 net.cpp:99] Creating Layer conv4_1/sep
I0613 09:34:26.953847 35302 net.cpp:479] conv4_1/sep <- conv4_1/dw
I0613 09:34:26.953855 35302 net.cpp:130] This layer is inheriting previous layer's sync mode: 1
I0613 09:34:26.953865 35302 net.cpp:435] conv4_1/sep -> conv4_1/sep
I0613 09:34:26.953873 35302 net.cpp:163] Setting up conv4_1/sep
I0613 09:34:27.119307 35302 net.cpp:170] Top shape: 50 256 28 28 (10035200)
I0613 09:34:27.119331 35302 layer_factory.hpp:74] Creating layer conv4_1/sep/bn
I0613 09:34:27.119341 35302 net.cpp:99] Creating Layer conv4_1/sep/bn
I0613 09:34:27.119345 35302 net.cpp:479] conv4_1/sep/bn <- conv4_1/sep
I0613 09:34:27.119351 35302 net.cpp:130] This layer is inheriting previous layer's sync mode: 1
I0613 09:34:27.119356 35302 net.cpp:424] conv4_1/sep/bn -> conv4_1/sep (in-place)
I0613 09:34:27.119362 35302 net.cpp:163] Setting up conv4_1/sep/bn
I0613 09:34:27.119375 35302 net.cpp:170] Top shape: 50 256 28 28 (10035200)
I0613 09:34:27.119382 35302 layer_factory.hpp:74] Creating layer conv4_1/sep/scale
I0613 09:34:27.119392 35302 net.cpp:99] Creating Layer conv4_1/sep/scale
I0613 09:34:27.119395 35302 net.cpp:479] conv4_1/sep/scale <- conv4_1/sep
I0613 09:34:27.119398 35302 net.cpp:130] This layer is inheriting previous layer's sync mode: 1
I0613 09:34:27.119403 35302 net.cpp:424] conv4_1/sep/scale -> conv4_1/sep (in-place)
I0613 09:34:27.119408 35302 net.cpp:163] Setting up conv4_1/sep/scale
I0613 09:34:27.119415 35302 layer_factory.hpp:74] Creating layer conv4_1/sep/scale
I0613 09:34:27.119433 35302 net.cpp:170] Top shape: 50 256 28 28 (10035200)
I0613 09:34:27.119462 35302 layer_factory.hpp:74] Creating layer relu4_1/sep
I0613 09:34:27.119470 35302 net.cpp:99] Creating Layer relu4_1/sep
I0613 09:34:27.119473 35302 net.cpp:479] relu4_1/sep <- conv4_1/sep
I0613 09:34:27.119477 35302 net.cpp:130] This layer is inheriting previous layer's sync mode: 1
I0613 09:34:27.119479 35302 net.cpp:424] relu4_1/sep -> conv4_1/sep (in-place)
I0613 09:34:27.119483 35302 net.cpp:163] Setting up relu4_1/sep
I0613 09:34:27.122416 35302 net.cpp:170] Top shape: 50 256 28 28 (10035200)
I0613 09:34:27.122445 35302 layer_factory.hpp:74] Creating layer conv4_2/dw
I0613 09:34:27.122454 35302 net.cpp:99] Creating Layer conv4_2/dw
I0613 09:34:27.122458 35302 net.cpp:479] conv4_2/dw <- conv4_1/sep
I0613 09:34:27.122464 35302 net.cpp:130] This layer is inheriting previous layer's sync mode: 1
I0613 09:34:27.122470 35302 net.cpp:435] conv4_2/dw -> conv4_2/dw
I0613 09:34:27.122483 35302 net.cpp:163] Setting up conv4_2/dw
I0613 09:34:27.122525 35302 net.cpp:170] Top shape: 50 256 14 14 (2508800)
I0613 09:34:27.122534 35302 layer_factory.hpp:74] Creating layer conv4_2/dw/bn
I0613 09:34:27.122541 35302 net.cpp:99] Creating Layer conv4_2/dw/bn
I0613 09:34:27.122545 35302 net.cpp:479] conv4_2/dw/bn <- conv4_2/dw
I0613 09:34:27.122548 35302 net.cpp:130] This layer is inheriting previous layer's sync mode: 1
I0613 09:34:27.122551 35302 net.cpp:424] conv4_2/dw/bn -> conv4_2/dw (in-place)
I0613 09:34:27.122557 35302 net.cpp:163] Setting up conv4_2/dw/bn
I0613 09:34:27.122570 35302 net.cpp:170] Top shape: 50 256 14 14 (2508800)
I0613 09:34:27.122576 35302 layer_factory.hpp:74] Creating layer conv4_2/dw/scale
I0613 09:34:27.122581 35302 net.cpp:99] Creating Layer conv4_2/dw/scale
I0613 09:34:27.122584 35302 net.cpp:479] conv4_2/dw/scale <- conv4_2/dw
I0613 09:34:27.122587 35302 net.cpp:130] This layer is inheriting previous layer's sync mode: 1
I0613 09:34:27.122592 35302 net.cpp:424] conv4_2/dw/scale -> conv4_2/dw (in-place)
I0613 09:34:27.122596 35302 net.cpp:163] Setting up conv4_2/dw/scale
I0613 09:34:27.122606 35302 layer_factory.hpp:74] Creating layer conv4_2/dw/scale
I0613 09:34:27.122617 35302 net.cpp:170] Top shape: 50 256 14 14 (2508800)
I0613 09:34:27.122622 35302 layer_factory.hpp:74] Creating layer relu4_2/dw
I0613 09:34:27.122627 35302 net.cpp:99] Creating Layer relu4_2/dw
I0613 09:34:27.122628 35302 net.cpp:479] relu4_2/dw <- conv4_2/dw
I0613 09:34:27.122632 35302 net.cpp:130] This layer is inheriting previous layer's sync mode: 1
I0613 09:34:27.122637 35302 net.cpp:424] relu4_2/dw -> conv4_2/dw (in-place)
I0613 09:34:27.122640 35302 net.cpp:163] Setting up relu4_2/dw
I0613 09:34:27.122825 35302 net.cpp:170] Top shape: 50 256 14 14 (2508800)
I0613 09:34:27.122833 35302 layer_factory.hpp:74] Creating layer conv4_2/sep
I0613 09:34:27.122843 35302 net.cpp:99] Creating Layer conv4_2/sep
I0613 09:34:27.122845 35302 net.cpp:479] conv4_2/sep <- conv4_2/dw
I0613 09:34:27.122848 35302 net.cpp:130] This layer is inheriting previous layer's sync mode: 1
I0613 09:34:27.122853 35302 net.cpp:435] conv4_2/sep -> conv4_2/sep
I0613 09:34:27.122860 35302 net.cpp:163] Setting up conv4_2/sep
I0613 09:34:27.296222 35302 net.cpp:170] Top shape: 50 512 14 14 (5017600)
I0613 09:34:27.296257 35302 layer_factory.hpp:74] Creating layer conv4_2/sep/bn
I0613 09:34:27.296272 35302 net.cpp:99] Creating Layer conv4_2/sep/bn
I0613 09:34:27.296281 35302 net.cpp:479] conv4_2/sep/bn <- conv4_2/sep
I0613 09:34:27.296291 35302 net.cpp:130] This layer is inheriting previous layer's sync mode: 1
I0613 09:34:27.296300 35302 net.cpp:424] conv4_2/sep/bn -> conv4_2/sep (in-place)
I0613 09:34:27.296313 35302 net.cpp:163] Setting up conv4_2/sep/bn
I0613 09:34:27.296340 35302 net.cpp:170] Top shape: 50 512 14 14 (5017600)
I0613 09:34:27.296355 35302 layer_factory.hpp:74] Creating layer conv4_2/sep/scale
I0613 09:34:27.296370 35302 net.cpp:99] Creating Layer conv4_2/sep/scale
I0613 09:34:27.296375 35302 net.cpp:479] conv4_2/sep/scale <- conv4_2/sep
I0613 09:34:27.296385 35302 net.cpp:130] This layer is inheriting previous layer's sync mode: 1
I0613 09:34:27.296394 35302 net.cpp:424] conv4_2/sep/scale -> conv4_2/sep (in-place)
I0613 09:34:27.296403 35302 net.cpp:163] Setting up conv4_2/sep/scale
I0613 09:34:27.296419 35302 layer_factory.hpp:74] Creating layer conv4_2/sep/scale
I0613 09:34:27.296455 35302 net.cpp:170] Top shape: 50 512 14 14 (5017600)
I0613 09:34:27.296468 35302 layer_factory.hpp:74] Creating layer relu4_2/sep
I0613 09:34:27.296476 35302 net.cpp:99] Creating Layer relu4_2/sep
I0613 09:34:27.296483 35302 net.cpp:479] relu4_2/sep <- conv4_2/sep
I0613 09:34:27.296526 35302 net.cpp:130] This layer is inheriting previous layer's sync mode: 1
I0613 09:34:27.296530 35302 net.cpp:424] relu4_2/sep -> conv4_2/sep (in-place)
I0613 09:34:27.296533 35302 net.cpp:163] Setting up relu4_2/sep
I0613 09:34:27.303129 35302 net.cpp:170] Top shape: 50 512 14 14 (5017600)
I0613 09:34:27.303156 35302 layer_factory.hpp:74] Creating layer conv5_1/dw
I0613 09:34:27.303166 35302 net.cpp:99] Creating Layer conv5_1/dw
I0613 09:34:27.303169 35302 net.cpp:479] conv5_1/dw <- conv4_2/sep
I0613 09:34:27.303174 35302 net.cpp:130] This layer is inheriting previous layer's sync mode: 1
I0613 09:34:27.303179 35302 net.cpp:435] conv5_1/dw -> conv5_1/dw
I0613 09:34:27.303185 35302 net.cpp:163] Setting up conv5_1/dw
I0613 09:34:27.303259 35302 net.cpp:170] Top shape: 50 512 14 14 (5017600)
I0613 09:34:27.303266 35302 layer_factory.hpp:74] Creating layer conv5_1/dw/bn
I0613 09:34:27.303272 35302 net.cpp:99] Creating Layer conv5_1/dw/bn
I0613 09:34:27.303275 35302 net.cpp:479] conv5_1/dw/bn <- conv5_1/dw
I0613 09:34:27.303278 35302 net.cpp:130] This layer is inheriting previous layer's sync mode: 1
I0613 09:34:27.303282 35302 net.cpp:424] conv5_1/dw/bn -> conv5_1/dw (in-place)
I0613 09:34:27.303287 35302 net.cpp:163] Setting up conv5_1/dw/bn
I0613 09:34:27.303297 35302 net.cpp:170] Top shape: 50 512 14 14 (5017600)
I0613 09:34:27.303303 35302 layer_factory.hpp:74] Creating layer conv5_1/dw/scale
I0613 09:34:27.303308 35302 net.cpp:99] Creating Layer conv5_1/dw/scale
I0613 09:34:27.303310 35302 net.cpp:479] conv5_1/dw/scale <- conv5_1/dw
I0613 09:34:27.303313 35302 net.cpp:130] This layer is inheriting previous layer's sync mode: 1
I0613 09:34:27.303318 35302 net.cpp:424] conv5_1/dw/scale -> conv5_1/dw (in-place)
I0613 09:34:27.303323 35302 net.cpp:163] Setting up conv5_1/dw/scale
I0613 09:34:27.303330 35302 layer_factory.hpp:74] Creating layer conv5_1/dw/scale
I0613 09:34:27.303344 35302 net.cpp:170] Top shape: 50 512 14 14 (5017600)
I0613 09:34:27.303349 35302 layer_factory.hpp:74] Creating layer relu5_1/dw
I0613 09:34:27.303354 35302 net.cpp:99] Creating Layer relu5_1/dw
I0613 09:34:27.303356 35302 net.cpp:479] relu5_1/dw <- conv5_1/dw
I0613 09:34:27.303359 35302 net.cpp:130] This layer is inheriting previous layer's sync mode: 1
I0613 09:34:27.303362 35302 net.cpp:424] relu5_1/dw -> conv5_1/dw (in-place)
I0613 09:34:27.303367 35302 net.cpp:163] Setting up relu5_1/dw
I0613 09:34:27.303539 35302 net.cpp:170] Top shape: 50 512 14 14 (5017600)
I0613 09:34:27.303565 35302 layer_factory.hpp:74] Creating layer conv5_1/sep
I0613 09:34:27.303586 35302 net.cpp:99] Creating Layer conv5_1/sep
I0613 09:34:27.303589 35302 net.cpp:479] conv5_1/sep <- conv5_1/dw
I0613 09:34:27.303596 35302 net.cpp:130] This layer is inheriting previous layer's sync mode: 1
I0613 09:34:27.303599 35302 net.cpp:435] conv5_1/sep -> conv5_1/sep
I0613 09:34:27.303606 35302 net.cpp:163] Setting up conv5_1/sep
I0613 09:34:27.539604 35302 net.cpp:170] Top shape: 50 512 14 14 (5017600)
I0613 09:34:27.539629 35302 layer_factory.hpp:74] Creating layer conv5_1/sep/bn
I0613 09:34:27.539639 35302 net.cpp:99] Creating Layer conv5_1/sep/bn
I0613 09:34:27.539643 35302 net.cpp:479] conv5_1/sep/bn <- conv5_1/sep
I0613 09:34:27.539647 35302 net.cpp:130] This layer is inheriting previous layer's sync mode: 1
I0613 09:34:27.539651 35302 net.cpp:424] conv5_1/sep/bn -> conv5_1/sep (in-place)
I0613 09:34:27.539657 35302 net.cpp:163] Setting up conv5_1/sep/bn
I0613 09:34:27.539671 35302 net.cpp:170] Top shape: 50 512 14 14 (5017600)
I0613 09:34:27.539679 35302 layer_factory.hpp:74] Creating layer conv5_1/sep/scale
I0613 09:34:27.539686 35302 net.cpp:99] Creating Layer conv5_1/sep/scale
I0613 09:34:27.539688 35302 net.cpp:479] conv5_1/sep/scale <- conv5_1/sep
I0613 09:34:27.539691 35302 net.cpp:130] This layer is inheriting previous layer's sync mode: 1
I0613 09:34:27.539703 35302 net.cpp:424] conv5_1/sep/scale -> conv5_1/sep (in-place)
I0613 09:34:27.539710 35302 net.cpp:163] Setting up conv5_1/sep/scale
I0613 09:34:27.539718 35302 layer_factory.hpp:74] Creating layer conv5_1/sep/scale
I0613 09:34:27.539754 35302 net.cpp:170] Top shape: 50 512 14 14 (5017600)
I0613 09:34:27.539763 35302 layer_factory.hpp:74] Creating layer relu5_1/sep
I0613 09:34:27.539768 35302 net.cpp:99] Creating Layer relu5_1/sep
I0613 09:34:27.539770 35302 net.cpp:479] relu5_1/sep <- conv5_1/sep
I0613 09:34:27.539773 35302 net.cpp:130] This layer is inheriting previous layer's sync mode: 1
I0613 09:34:27.539778 35302 net.cpp:424] relu5_1/sep -> conv5_1/sep (in-place)
I0613 09:34:27.539783 35302 net.cpp:163] Setting up relu5_1/sep
I0613 09:34:27.539994 35302 net.cpp:170] Top shape: 50 512 14 14 (5017600)
I0613 09:34:27.540002 35302 layer_factory.hpp:74] Creating layer conv5_2/dw
I0613 09:34:27.540010 35302 net.cpp:99] Creating Layer conv5_2/dw
I0613 09:34:27.540014 35302 net.cpp:479] conv5_2/dw <- conv5_1/sep
I0613 09:34:27.540017 35302 net.cpp:130] This layer is inheriting previous layer's sync mode: 1
I0613 09:34:27.540020 35302 net.cpp:435] conv5_2/dw -> conv5_2/dw
I0613 09:34:27.540027 35302 net.cpp:163] Setting up conv5_2/dw
I0613 09:34:27.540087 35302 net.cpp:170] Top shape: 50 512 14 14 (5017600)
I0613 09:34:27.540093 35302 layer_factory.hpp:74] Creating layer conv5_2/dw/bn
I0613 09:34:27.540098 35302 net.cpp:99] Creating Layer conv5_2/dw/bn
I0613 09:34:27.540102 35302 net.cpp:479] conv5_2/dw/bn <- conv5_2/dw
I0613 09:34:27.540105 35302 net.cpp:130] This layer is inheriting previous layer's sync mode: 1
I0613 09:34:27.540109 35302 net.cpp:424] conv5_2/dw/bn -> conv5_2/dw (in-place)
I0613 09:34:27.540113 35302 net.cpp:163] Setting up conv5_2/dw/bn
I0613 09:34:27.540125 35302 net.cpp:170] Top shape: 50 512 14 14 (5017600)
I0613 09:34:27.540132 35302 layer_factory.hpp:74] Creating layer conv5_2/dw/scale
I0613 09:34:27.540149 35302 net.cpp:99] Creating Layer conv5_2/dw/scale
I0613 09:34:27.540151 35302 net.cpp:479] conv5_2/dw/scale <- conv5_2/dw
I0613 09:34:27.540154 35302 net.cpp:130] This layer is inheriting previous layer's sync mode: 1
I0613 09:34:27.540158 35302 net.cpp:424] conv5_2/dw/scale -> conv5_2/dw (in-place)
I0613 09:34:27.540163 35302 net.cpp:163] Setting up conv5_2/dw/scale
I0613 09:34:27.540168 35302 layer_factory.hpp:74] Creating layer conv5_2/dw/scale
I0613 09:34:27.540181 35302 net.cpp:170] Top shape: 50 512 14 14 (5017600)
I0613 09:34:27.540186 35302 layer_factory.hpp:74] Creating layer relu5_2/dw
I0613 09:34:27.540190 35302 net.cpp:99] Creating Layer relu5_2/dw
I0613 09:34:27.540192 35302 net.cpp:479] relu5_2/dw <- conv5_2/dw
I0613 09:34:27.540194 35302 net.cpp:130] This layer is inheriting previous layer's sync mode: 1
I0613 09:34:27.540199 35302 net.cpp:424] relu5_2/dw -> conv5_2/dw (in-place)
I0613 09:34:27.540200 35302 net.cpp:163] Setting up relu5_2/dw
I0613 09:34:27.546212 35302 net.cpp:170] Top shape: 50 512 14 14 (5017600)
I0613 09:34:27.546224 35302 layer_factory.hpp:74] Creating layer conv5_2/sep
I0613 09:34:27.546248 35302 net.cpp:99] Creating Layer conv5_2/sep
I0613 09:34:27.546252 35302 net.cpp:479] conv5_2/sep <- conv5_2/dw
I0613 09:34:27.546255 35302 net.cpp:130] This layer is inheriting previous layer's sync mode: 1
I0613 09:34:27.546262 35302 net.cpp:435] conv5_2/sep -> conv5_2/sep
I0613 09:34:27.546267 35302 net.cpp:163] Setting up conv5_2/sep
I0613 09:34:27.780495 35302 net.cpp:170] Top shape: 50 512 14 14 (5017600)
I0613 09:34:27.780519 35302 layer_factory.hpp:74] Creating layer conv5_2/sep/bn
I0613 09:34:27.780529 35302 net.cpp:99] Creating Layer conv5_2/sep/bn
I0613 09:34:27.780534 35302 net.cpp:479] conv5_2/sep/bn <- conv5_2/sep
I0613 09:34:27.780537 35302 net.cpp:130] This layer is inheriting previous layer's sync mode: 1
I0613 09:34:27.780541 35302 net.cpp:424] conv5_2/sep/bn -> conv5_2/sep (in-place)
I0613 09:34:27.780549 35302 net.cpp:163] Setting up conv5_2/sep/bn
I0613 09:34:27.780565 35302 net.cpp:170] Top shape: 50 512 14 14 (5017600)
I0613 09:34:27.780572 35302 layer_factory.hpp:74] Creating layer conv5_2/sep/scale
I0613 09:34:27.780578 35302 net.cpp:99] Creating Layer conv5_2/sep/scale
I0613 09:34:27.780580 35302 net.cpp:479] conv5_2/sep/scale <- conv5_2/sep
I0613 09:34:27.780601 35302 net.cpp:130] This layer is inheriting previous layer's sync mode: 1
I0613 09:34:27.780606 35302 net.cpp:424] conv5_2/sep/scale -> conv5_2/sep (in-place)
I0613 09:34:27.780611 35302 net.cpp:163] Setting up conv5_2/sep/scale
I0613 09:34:27.780620 35302 layer_factory.hpp:74] Creating layer conv5_2/sep/scale
I0613 09:34:27.780638 35302 net.cpp:170] Top shape: 50 512 14 14 (5017600)
I0613 09:34:27.780643 35302 layer_factory.hpp:74] Creating layer relu5_2/sep
I0613 09:34:27.780647 35302 net.cpp:99] Creating Layer relu5_2/sep
I0613 09:34:27.780650 35302 net.cpp:479] relu5_2/sep <- conv5_2/sep
I0613 09:34:27.780653 35302 net.cpp:130] This layer is inheriting previous layer's sync mode: 1
I0613 09:34:27.780656 35302 net.cpp:424] relu5_2/sep -> conv5_2/sep (in-place)
I0613 09:34:27.780659 35302 net.cpp:163] Setting up relu5_2/sep
I0613 09:34:27.780907 35302 net.cpp:170] Top shape: 50 512 14 14 (5017600)
I0613 09:34:27.780920 35302 layer_factory.hpp:74] Creating layer conv5_3/dw
I0613 09:34:27.780926 35302 net.cpp:99] Creating Layer conv5_3/dw
I0613 09:34:27.780928 35302 net.cpp:479] conv5_3/dw <- conv5_2/sep
I0613 09:34:27.780932 35302 net.cpp:130] This layer is inheriting previous layer's sync mode: 1
I0613 09:34:27.780938 35302 net.cpp:435] conv5_3/dw -> conv5_3/dw
I0613 09:34:27.780943 35302 net.cpp:163] Setting up conv5_3/dw
I0613 09:34:27.781003 35302 net.cpp:170] Top shape: 50 512 14 14 (5017600)
I0613 09:34:27.781009 35302 layer_factory.hpp:74] Creating layer conv5_3/dw/bn
I0613 09:34:27.781016 35302 net.cpp:99] Creating Layer conv5_3/dw/bn
I0613 09:34:27.781018 35302 net.cpp:479] conv5_3/dw/bn <- conv5_3/dw
I0613 09:34:27.781021 35302 net.cpp:130] This layer is inheriting previous layer's sync mode: 1
I0613 09:34:27.781024 35302 net.cpp:424] conv5_3/dw/bn -> conv5_3/dw (in-place)
I0613 09:34:27.781028 35302 net.cpp:163] Setting up conv5_3/dw/bn
I0613 09:34:27.781038 35302 net.cpp:170] Top shape: 50 512 14 14 (5017600)
I0613 09:34:27.781044 35302 layer_factory.hpp:74] Creating layer conv5_3/dw/scale
I0613 09:34:27.781049 35302 net.cpp:99] Creating Layer conv5_3/dw/scale
I0613 09:34:27.781051 35302 net.cpp:479] conv5_3/dw/scale <- conv5_3/dw
I0613 09:34:27.781054 35302 net.cpp:130] This layer is inheriting previous layer's sync mode: 1
I0613 09:34:27.781057 35302 net.cpp:424] conv5_3/dw/scale -> conv5_3/dw (in-place)
I0613 09:34:27.781061 35302 net.cpp:163] Setting up conv5_3/dw/scale
I0613 09:34:27.781069 35302 layer_factory.hpp:74] Creating layer conv5_3/dw/scale
I0613 09:34:27.781082 35302 net.cpp:170] Top shape: 50 512 14 14 (5017600)
I0613 09:34:27.781086 35302 layer_factory.hpp:74] Creating layer relu5_3/dw
I0613 09:34:27.781090 35302 net.cpp:99] Creating Layer relu5_3/dw
I0613 09:34:27.781092 35302 net.cpp:479] relu5_3/dw <- conv5_3/dw
I0613 09:34:27.781095 35302 net.cpp:130] This layer is inheriting previous layer's sync mode: 1
I0613 09:34:27.781100 35302 net.cpp:424] relu5_3/dw -> conv5_3/dw (in-place)
I0613 09:34:27.781103 35302 net.cpp:163] Setting up relu5_3/dw
I0613 09:34:27.784590 35302 net.cpp:170] Top shape: 50 512 14 14 (5017600)
I0613 09:34:27.784603 35302 layer_factory.hpp:74] Creating layer conv5_3/sep
I0613 09:34:27.784611 35302 net.cpp:99] Creating Layer conv5_3/sep
I0613 09:34:27.784615 35302 net.cpp:479] conv5_3/sep <- conv5_3/dw
I0613 09:34:27.784618 35302 net.cpp:130] This layer is inheriting previous layer's sync mode: 1
I0613 09:34:27.784622 35302 net.cpp:435] conv5_3/sep -> conv5_3/sep
I0613 09:34:27.784628 35302 net.cpp:163] Setting up conv5_3/sep
I0613 09:34:28.009745 35302 net.cpp:170] Top shape: 50 512 14 14 (5017600)
I0613 09:34:28.009768 35302 layer_factory.hpp:74] Creating layer conv5_3/sep/bn
I0613 09:34:28.009776 35302 net.cpp:99] Creating Layer conv5_3/sep/bn
I0613 09:34:28.009781 35302 net.cpp:479] conv5_3/sep/bn <- conv5_3/sep
I0613 09:34:28.009785 35302 net.cpp:130] This layer is inheriting previous layer's sync mode: 1
I0613 09:34:28.009790 35302 net.cpp:424] conv5_3/sep/bn -> conv5_3/sep (in-place)
I0613 09:34:28.009796 35302 net.cpp:163] Setting up conv5_3/sep/bn
I0613 09:34:28.009829 35302 net.cpp:170] Top shape: 50 512 14 14 (5017600)
I0613 09:34:28.009836 35302 layer_factory.hpp:74] Creating layer conv5_3/sep/scale
I0613 09:34:28.009845 35302 net.cpp:99] Creating Layer conv5_3/sep/scale
I0613 09:34:28.009847 35302 net.cpp:479] conv5_3/sep/scale <- conv5_3/sep
I0613 09:34:28.009850 35302 net.cpp:130] This layer is inheriting previous layer's sync mode: 1
I0613 09:34:28.009853 35302 net.cpp:424] conv5_3/sep/scale -> conv5_3/sep (in-place)
I0613 09:34:28.009858 35302 net.cpp:163] Setting up conv5_3/sep/scale
I0613 09:34:28.009866 35302 layer_factory.hpp:74] Creating layer conv5_3/sep/scale
I0613 09:34:28.009882 35302 net.cpp:170] Top shape: 50 512 14 14 (5017600)
I0613 09:34:28.009887 35302 layer_factory.hpp:74] Creating layer relu5_3/sep
I0613 09:34:28.009892 35302 net.cpp:99] Creating Layer relu5_3/sep
I0613 09:34:28.009894 35302 net.cpp:479] relu5_3/sep <- conv5_3/sep
I0613 09:34:28.009897 35302 net.cpp:130] This layer is inheriting previous layer's sync mode: 1
I0613 09:34:28.009899 35302 net.cpp:424] relu5_3/sep -> conv5_3/sep (in-place)
I0613 09:34:28.009903 35302 net.cpp:163] Setting up relu5_3/sep
I0613 09:34:28.010124 35302 net.cpp:170] Top shape: 50 512 14 14 (5017600)
I0613 09:34:28.010133 35302 layer_factory.hpp:74] Creating layer conv5_4/dw
I0613 09:34:28.010140 35302 net.cpp:99] Creating Layer conv5_4/dw
I0613 09:34:28.010144 35302 net.cpp:479] conv5_4/dw <- conv5_3/sep
I0613 09:34:28.010148 35302 net.cpp:130] This layer is inheriting previous layer's sync mode: 1
I0613 09:34:28.010150 35302 net.cpp:435] conv5_4/dw -> conv5_4/dw
I0613 09:34:28.010159 35302 net.cpp:163] Setting up conv5_4/dw
I0613 09:34:28.010216 35302 net.cpp:170] Top shape: 50 512 14 14 (5017600)
I0613 09:34:28.010222 35302 layer_factory.hpp:74] Creating layer conv5_4/dw/bn
I0613 09:34:28.010227 35302 net.cpp:99] Creating Layer conv5_4/dw/bn
I0613 09:34:28.010229 35302 net.cpp:479] conv5_4/dw/bn <- conv5_4/dw
I0613 09:34:28.010233 35302 net.cpp:130] This layer is inheriting previous layer's sync mode: 1
I0613 09:34:28.010237 35302 net.cpp:424] conv5_4/dw/bn -> conv5_4/dw (in-place)
I0613 09:34:28.010241 35302 net.cpp:163] Setting up conv5_4/dw/bn
I0613 09:34:28.010251 35302 net.cpp:170] Top shape: 50 512 14 14 (5017600)
I0613 09:34:28.010257 35302 layer_factory.hpp:74] Creating layer conv5_4/dw/scale
I0613 09:34:28.010262 35302 net.cpp:99] Creating Layer conv5_4/dw/scale
I0613 09:34:28.010264 35302 net.cpp:479] conv5_4/dw/scale <- conv5_4/dw
I0613 09:34:28.010267 35302 net.cpp:130] This layer is inheriting previous layer's sync mode: 1
I0613 09:34:28.010270 35302 net.cpp:424] conv5_4/dw/scale -> conv5_4/dw (in-place)
I0613 09:34:28.010274 35302 net.cpp:163] Setting up conv5_4/dw/scale
I0613 09:34:28.010279 35302 layer_factory.hpp:74] Creating layer conv5_4/dw/scale
I0613 09:34:28.010294 35302 net.cpp:170] Top shape: 50 512 14 14 (5017600)
I0613 09:34:28.010301 35302 layer_factory.hpp:74] Creating layer relu5_4/dw
I0613 09:34:28.010304 35302 net.cpp:99] Creating Layer relu5_4/dw
I0613 09:34:28.010308 35302 net.cpp:479] relu5_4/dw <- conv5_4/dw
I0613 09:34:28.010309 35302 net.cpp:130] This layer is inheriting previous layer's sync mode: 1
I0613 09:34:28.010313 35302 net.cpp:424] relu5_4/dw -> conv5_4/dw (in-place)
I0613 09:34:28.010315 35302 net.cpp:163] Setting up relu5_4/dw
I0613 09:34:28.014716 35302 net.cpp:170] Top shape: 50 512 14 14 (5017600)
I0613 09:34:28.014729 35302 layer_factory.hpp:74] Creating layer conv5_4/sep
I0613 09:34:28.014739 35302 net.cpp:99] Creating Layer conv5_4/sep
I0613 09:34:28.014741 35302 net.cpp:479] conv5_4/sep <- conv5_4/dw
I0613 09:34:28.014745 35302 net.cpp:130] This layer is inheriting previous layer's sync mode: 1
I0613 09:34:28.014751 35302 net.cpp:435] conv5_4/sep -> conv5_4/sep
I0613 09:34:28.014757 35302 net.cpp:163] Setting up conv5_4/sep
I0613 09:34:28.244978 35302 net.cpp:170] Top shape: 50 512 14 14 (5017600)
I0613 09:34:28.245004 35302 layer_factory.hpp:74] Creating layer conv5_4/sep/bn
I0613 09:34:28.245018 35302 net.cpp:99] Creating Layer conv5_4/sep/bn
I0613 09:34:28.245038 35302 net.cpp:479] conv5_4/sep/bn <- conv5_4/sep
I0613 09:34:28.245044 35302 net.cpp:130] This layer is inheriting previous layer's sync mode: 1
I0613 09:34:28.245049 35302 net.cpp:424] conv5_4/sep/bn -> conv5_4/sep (in-place)
I0613 09:34:28.245055 35302 net.cpp:163] Setting up conv5_4/sep/bn
I0613 09:34:28.245072 35302 net.cpp:170] Top shape: 50 512 14 14 (5017600)
I0613 09:34:28.245079 35302 layer_factory.hpp:74] Creating layer conv5_4/sep/scale
I0613 09:34:28.245085 35302 net.cpp:99] Creating Layer conv5_4/sep/scale
I0613 09:34:28.245087 35302 net.cpp:479] conv5_4/sep/scale <- conv5_4/sep
I0613 09:34:28.245091 35302 net.cpp:130] This layer is inheriting previous layer's sync mode: 1
I0613 09:34:28.245095 35302 net.cpp:424] conv5_4/sep/scale -> conv5_4/sep (in-place)
I0613 09:34:28.245098 35302 net.cpp:163] Setting up conv5_4/sep/scale
I0613 09:34:28.245106 35302 layer_factory.hpp:74] Creating layer conv5_4/sep/scale
I0613 09:34:28.245121 35302 net.cpp:170] Top shape: 50 512 14 14 (5017600)
I0613 09:34:28.245126 35302 layer_factory.hpp:74] Creating layer relu5_4/sep
I0613 09:34:28.245131 35302 net.cpp:99] Creating Layer relu5_4/sep
I0613 09:34:28.245133 35302 net.cpp:479] relu5_4/sep <- conv5_4/sep
I0613 09:34:28.245136 35302 net.cpp:130] This layer is inheriting previous layer's sync mode: 1
I0613 09:34:28.245141 35302 net.cpp:424] relu5_4/sep -> conv5_4/sep (in-place)
I0613 09:34:28.245144 35302 net.cpp:163] Setting up relu5_4/sep
I0613 09:34:28.259455 35302 net.cpp:170] Top shape: 50 512 14 14 (5017600)
I0613 09:34:28.259481 35302 layer_factory.hpp:74] Creating layer conv5_5/dw
I0613 09:34:28.259500 35302 net.cpp:99] Creating Layer conv5_5/dw
I0613 09:34:28.259505 35302 net.cpp:479] conv5_5/dw <- conv5_4/sep
I0613 09:34:28.259510 35302 net.cpp:130] This layer is inheriting previous layer's sync mode: 1
I0613 09:34:28.259516 35302 net.cpp:435] conv5_5/dw -> conv5_5/dw
I0613 09:34:28.259526 35302 net.cpp:163] Setting up conv5_5/dw
I0613 09:34:28.259601 35302 net.cpp:170] Top shape: 50 512 14 14 (5017600)
I0613 09:34:28.259609 35302 layer_factory.hpp:74] Creating layer conv5_5/dw/bn
I0613 09:34:28.259615 35302 net.cpp:99] Creating Layer conv5_5/dw/bn
I0613 09:34:28.259618 35302 net.cpp:479] conv5_5/dw/bn <- conv5_5/dw
I0613 09:34:28.259621 35302 net.cpp:130] This layer is inheriting previous layer's sync mode: 1
I0613 09:34:28.259625 35302 net.cpp:424] conv5_5/dw/bn -> conv5_5/dw (in-place)
I0613 09:34:28.259630 35302 net.cpp:163] Setting up conv5_5/dw/bn
I0613 09:34:28.259644 35302 net.cpp:170] Top shape: 50 512 14 14 (5017600)
I0613 09:34:28.259671 35302 layer_factory.hpp:74] Creating layer conv5_5/dw/scale
I0613 09:34:28.259682 35302 net.cpp:99] Creating Layer conv5_5/dw/scale
I0613 09:34:28.259685 35302 net.cpp:479] conv5_5/dw/scale <- conv5_5/dw
I0613 09:34:28.259690 35302 net.cpp:130] This layer is inheriting previous layer's sync mode: 1
I0613 09:34:28.259703 35302 net.cpp:424] conv5_5/dw/scale -> conv5_5/dw (in-place)
I0613 09:34:28.259709 35302 net.cpp:163] Setting up conv5_5/dw/scale
I0613 09:34:28.259719 35302 layer_factory.hpp:74] Creating layer conv5_5/dw/scale
I0613 09:34:28.259737 35302 net.cpp:170] Top shape: 50 512 14 14 (5017600)
I0613 09:34:28.259742 35302 layer_factory.hpp:74] Creating layer relu5_5/dw
I0613 09:34:28.259745 35302 net.cpp:99] Creating Layer relu5_5/dw
I0613 09:34:28.259748 35302 net.cpp:479] relu5_5/dw <- conv5_5/dw
I0613 09:34:28.259752 35302 net.cpp:130] This layer is inheriting previous layer's sync mode: 1
I0613 09:34:28.259754 35302 net.cpp:424] relu5_5/dw -> conv5_5/dw (in-place)
I0613 09:34:28.259757 35302 net.cpp:163] Setting up relu5_5/dw
I0613 09:34:28.261512 35302 net.cpp:170] Top shape: 50 512 14 14 (5017600)
I0613 09:34:28.261526 35302 layer_factory.hpp:74] Creating layer conv5_5/sep
I0613 09:34:28.261538 35302 net.cpp:99] Creating Layer conv5_5/sep
I0613 09:34:28.261543 35302 net.cpp:479] conv5_5/sep <- conv5_5/dw
I0613 09:34:28.261548 35302 net.cpp:130] This layer is inheriting previous layer's sync mode: 1
I0613 09:34:28.261579 35302 net.cpp:435] conv5_5/sep -> conv5_5/sep
I0613 09:34:28.261590 35302 net.cpp:163] Setting up conv5_5/sep
I0613 09:34:28.485635 35302 net.cpp:170] Top shape: 50 512 14 14 (5017600)
I0613 09:34:28.485661 35302 layer_factory.hpp:74] Creating layer conv5_5/sep/bn
I0613 09:34:28.485669 35302 net.cpp:99] Creating Layer conv5_5/sep/bn
I0613 09:34:28.485674 35302 net.cpp:479] conv5_5/sep/bn <- conv5_5/sep
I0613 09:34:28.485679 35302 net.cpp:130] This layer is inheriting previous layer's sync mode: 1
I0613 09:34:28.485684 35302 net.cpp:424] conv5_5/sep/bn -> conv5_5/sep (in-place)
I0613 09:34:28.485690 35302 net.cpp:163] Setting up conv5_5/sep/bn
I0613 09:34:28.485718 35302 net.cpp:170] Top shape: 50 512 14 14 (5017600)
I0613 09:34:28.485726 35302 layer_factory.hpp:74] Creating layer conv5_5/sep/scale
I0613 09:34:28.485735 35302 net.cpp:99] Creating Layer conv5_5/sep/scale
I0613 09:34:28.485738 35302 net.cpp:479] conv5_5/sep/scale <- conv5_5/sep
I0613 09:34:28.485740 35302 net.cpp:130] This layer is inheriting previous layer's sync mode: 1
I0613 09:34:28.485743 35302 net.cpp:424] conv5_5/sep/scale -> conv5_5/sep (in-place)
I0613 09:34:28.485749 35302 net.cpp:163] Setting up conv5_5/sep/scale
I0613 09:34:28.485757 35302 layer_factory.hpp:74] Creating layer conv5_5/sep/scale
I0613 09:34:28.485772 35302 net.cpp:170] Top shape: 50 512 14 14 (5017600)
I0613 09:34:28.485777 35302 layer_factory.hpp:74] Creating layer relu5_5/sep
I0613 09:34:28.485783 35302 net.cpp:99] Creating Layer relu5_5/sep
I0613 09:34:28.485786 35302 net.cpp:479] relu5_5/sep <- conv5_5/sep
I0613 09:34:28.485790 35302 net.cpp:130] This layer is inheriting previous layer's sync mode: 1
I0613 09:34:28.485792 35302 net.cpp:424] relu5_5/sep -> conv5_5/sep (in-place)
I0613 09:34:28.485795 35302 net.cpp:163] Setting up relu5_5/sep
I0613 09:34:28.491502 35302 net.cpp:170] Top shape: 50 512 14 14 (5017600)
I0613 09:34:28.491515 35302 layer_factory.hpp:74] Creating layer conv5_6/dw
I0613 09:34:28.491525 35302 net.cpp:99] Creating Layer conv5_6/dw
I0613 09:34:28.491530 35302 net.cpp:479] conv5_6/dw <- conv5_5/sep
I0613 09:34:28.491535 35302 net.cpp:130] This layer is inheriting previous layer's sync mode: 1
I0613 09:34:28.491539 35302 net.cpp:435] conv5_6/dw -> conv5_6/dw
I0613 09:34:28.491546 35302 net.cpp:163] Setting up conv5_6/dw
I0613 09:34:28.491611 35302 net.cpp:170] Top shape: 50 512 7 7 (1254400)
I0613 09:34:28.491618 35302 layer_factory.hpp:74] Creating layer conv5_6/dw/bn
I0613 09:34:28.491623 35302 net.cpp:99] Creating Layer conv5_6/dw/bn
I0613 09:34:28.491626 35302 net.cpp:479] conv5_6/dw/bn <- conv5_6/dw
I0613 09:34:28.491629 35302 net.cpp:130] This layer is inheriting previous layer's sync mode: 1
I0613 09:34:28.491636 35302 net.cpp:424] conv5_6/dw/bn -> conv5_6/dw (in-place)
I0613 09:34:28.491639 35302 net.cpp:163] Setting up conv5_6/dw/bn
I0613 09:34:28.491652 35302 net.cpp:170] Top shape: 50 512 7 7 (1254400)
I0613 09:34:28.491659 35302 layer_factory.hpp:74] Creating layer conv5_6/dw/scale
I0613 09:34:28.491664 35302 net.cpp:99] Creating Layer conv5_6/dw/scale
I0613 09:34:28.491667 35302 net.cpp:479] conv5_6/dw/scale <- conv5_6/dw
I0613 09:34:28.491670 35302 net.cpp:130] This layer is inheriting previous layer's sync mode: 1
I0613 09:34:28.491678 35302 net.cpp:424] conv5_6/dw/scale -> conv5_6/dw (in-place)
I0613 09:34:28.491683 35302 net.cpp:163] Setting up conv5_6/dw/scale
I0613 09:34:28.491689 35302 layer_factory.hpp:74] Creating layer conv5_6/dw/scale
I0613 09:34:28.491716 35302 net.cpp:170] Top shape: 50 512 7 7 (1254400)
I0613 09:34:28.491725 35302 layer_factory.hpp:74] Creating layer relu5_6/dw
I0613 09:34:28.491734 35302 net.cpp:99] Creating Layer relu5_6/dw
I0613 09:34:28.491736 35302 net.cpp:479] relu5_6/dw <- conv5_6/dw
I0613 09:34:28.491740 35302 net.cpp:130] This layer is inheriting previous layer's sync mode: 1
I0613 09:34:28.491744 35302 net.cpp:424] relu5_6/dw -> conv5_6/dw (in-place)
I0613 09:34:28.491747 35302 net.cpp:163] Setting up relu5_6/dw
I0613 09:34:28.491930 35302 net.cpp:170] Top shape: 50 512 7 7 (1254400)
I0613 09:34:28.491955 35302 layer_factory.hpp:74] Creating layer conv5_6/sep
I0613 09:34:28.491961 35302 net.cpp:99] Creating Layer conv5_6/sep
I0613 09:34:28.491964 35302 net.cpp:479] conv5_6/sep <- conv5_6/dw
I0613 09:34:28.491968 35302 net.cpp:130] This layer is inheriting previous layer's sync mode: 1
I0613 09:34:28.491973 35302 net.cpp:435] conv5_6/sep -> conv5_6/sep
I0613 09:34:28.491979 35302 net.cpp:163] Setting up conv5_6/sep
I0613 09:34:28.825000 35302 net.cpp:170] Top shape: 50 1024 7 7 (2508800)
I0613 09:34:28.825021 35302 layer_factory.hpp:74] Creating layer conv5_6/sep/bn
I0613 09:34:28.825031 35302 net.cpp:99] Creating Layer conv5_6/sep/bn
I0613 09:34:28.825036 35302 net.cpp:479] conv5_6/sep/bn <- conv5_6/sep
I0613 09:34:28.825040 35302 net.cpp:130] This layer is inheriting previous layer's sync mode: 1
I0613 09:34:28.825044 35302 net.cpp:424] conv5_6/sep/bn -> conv5_6/sep (in-place)
I0613 09:34:28.825050 35302 net.cpp:163] Setting up conv5_6/sep/bn
I0613 09:34:28.825067 35302 net.cpp:170] Top shape: 50 1024 7 7 (2508800)
I0613 09:34:28.825074 35302 layer_factory.hpp:74] Creating layer conv5_6/sep/scale
I0613 09:34:28.825080 35302 net.cpp:99] Creating Layer conv5_6/sep/scale
I0613 09:34:28.825083 35302 net.cpp:479] conv5_6/sep/scale <- conv5_6/sep
I0613 09:34:28.825086 35302 net.cpp:130] This layer is inheriting previous layer's sync mode: 1
I0613 09:34:28.825089 35302 net.cpp:424] conv5_6/sep/scale -> conv5_6/sep (in-place)
I0613 09:34:28.825094 35302 net.cpp:163] Setting up conv5_6/sep/scale
I0613 09:34:28.825103 35302 layer_factory.hpp:74] Creating layer conv5_6/sep/scale
I0613 09:34:28.825119 35302 net.cpp:170] Top shape: 50 1024 7 7 (2508800)
I0613 09:34:28.825124 35302 layer_factory.hpp:74] Creating layer relu5_6/sep
I0613 09:34:28.825129 35302 net.cpp:99] Creating Layer relu5_6/sep
I0613 09:34:28.825131 35302 net.cpp:479] relu5_6/sep <- conv5_6/sep
I0613 09:34:28.825134 35302 net.cpp:130] This layer is inheriting previous layer's sync mode: 1
I0613 09:34:28.825139 35302 net.cpp:424] relu5_6/sep -> conv5_6/sep (in-place)
I0613 09:34:28.825141 35302 net.cpp:163] Setting up relu5_6/sep
I0613 09:34:28.837019 35302 net.cpp:170] Top shape: 50 1024 7 7 (2508800)
I0613 09:34:28.837034 35302 layer_factory.hpp:74] Creating layer conv6/dw
I0613 09:34:28.837045 35302 net.cpp:99] Creating Layer conv6/dw
I0613 09:34:28.837049 35302 net.cpp:479] conv6/dw <- conv5_6/sep
I0613 09:34:28.837054 35302 net.cpp:130] This layer is inheriting previous layer's sync mode: 1
I0613 09:34:28.837060 35302 net.cpp:435] conv6/dw -> conv6/dw
I0613 09:34:28.837069 35302 net.cpp:163] Setting up conv6/dw
I0613 09:34:28.837172 35302 net.cpp:170] Top shape: 50 1024 7 7 (2508800)
I0613 09:34:28.837180 35302 layer_factory.hpp:74] Creating layer conv6/dw/bn
I0613 09:34:28.837188 35302 net.cpp:99] Creating Layer conv6/dw/bn
I0613 09:34:28.837190 35302 net.cpp:479] conv6/dw/bn <- conv6/dw
I0613 09:34:28.837193 35302 net.cpp:130] This layer is inheriting previous layer's sync mode: 1
I0613 09:34:28.837196 35302 net.cpp:424] conv6/dw/bn -> conv6/dw (in-place)
I0613 09:34:28.837201 35302 net.cpp:163] Setting up conv6/dw/bn
I0613 09:34:28.837215 35302 net.cpp:170] Top shape: 50 1024 7 7 (2508800)
I0613 09:34:28.837220 35302 layer_factory.hpp:74] Creating layer conv6/dw/scale
I0613 09:34:28.837226 35302 net.cpp:99] Creating Layer conv6/dw/scale
I0613 09:34:28.837229 35302 net.cpp:479] conv6/dw/scale <- conv6/dw
I0613 09:34:28.837231 35302 net.cpp:130] This layer is inheriting previous layer's sync mode: 1
I0613 09:34:28.837234 35302 net.cpp:424] conv6/dw/scale -> conv6/dw (in-place)
I0613 09:34:28.837239 35302 net.cpp:163] Setting up conv6/dw/scale
I0613 09:34:28.837247 35302 layer_factory.hpp:74] Creating layer conv6/dw/scale
I0613 09:34:28.837260 35302 net.cpp:170] Top shape: 50 1024 7 7 (2508800)
I0613 09:34:28.837265 35302 layer_factory.hpp:74] Creating layer relu6/dw
I0613 09:34:28.837268 35302 net.cpp:99] Creating Layer relu6/dw
I0613 09:34:28.837271 35302 net.cpp:479] relu6/dw <- conv6/dw
I0613 09:34:28.837273 35302 net.cpp:130] This layer is inheriting previous layer's sync mode: 1
I0613 09:34:28.837293 35302 net.cpp:424] relu6/dw -> conv6/dw (in-place)
I0613 09:34:28.837296 35302 net.cpp:163] Setting up relu6/dw
I0613 09:34:28.837476 35302 net.cpp:170] Top shape: 50 1024 7 7 (2508800)
I0613 09:34:28.837483 35302 layer_factory.hpp:74] Creating layer conv6/sep
I0613 09:34:28.837491 35302 net.cpp:99] Creating Layer conv6/sep
I0613 09:34:28.837493 35302 net.cpp:479] conv6/sep <- conv6/dw
I0613 09:34:28.837497 35302 net.cpp:130] This layer is inheriting previous layer's sync mode: 1
I0613 09:34:28.837501 35302 net.cpp:435] conv6/sep -> conv6/sep
I0613 09:34:28.837507 35302 net.cpp:163] Setting up conv6/sep
I0613 09:34:29.274420 35302 net.cpp:170] Top shape: 50 1024 7 7 (2508800)
I0613 09:34:29.274446 35302 layer_factory.hpp:74] Creating layer conv6/sep/bn
I0613 09:34:29.274456 35302 net.cpp:99] Creating Layer conv6/sep/bn
I0613 09:34:29.274459 35302 net.cpp:479] conv6/sep/bn <- conv6/sep
I0613 09:34:29.274464 35302 net.cpp:130] This layer is inheriting previous layer's sync mode: 1
I0613 09:34:29.274468 35302 net.cpp:424] conv6/sep/bn -> conv6/sep (in-place)
I0613 09:34:29.274474 35302 net.cpp:163] Setting up conv6/sep/bn
I0613 09:34:29.274493 35302 net.cpp:170] Top shape: 50 1024 7 7 (2508800)
I0613 09:34:29.274499 35302 layer_factory.hpp:74] Creating layer conv6/sep/scale
I0613 09:34:29.274507 35302 net.cpp:99] Creating Layer conv6/sep/scale
I0613 09:34:29.274508 35302 net.cpp:479] conv6/sep/scale <- conv6/sep
I0613 09:34:29.274511 35302 net.cpp:130] This layer is inheriting previous layer's sync mode: 1
I0613 09:34:29.274516 35302 net.cpp:424] conv6/sep/scale -> conv6/sep (in-place)
I0613 09:34:29.274520 35302 net.cpp:163] Setting up conv6/sep/scale
I0613 09:34:29.274530 35302 layer_factory.hpp:74] Creating layer conv6/sep/scale
I0613 09:34:29.274545 35302 net.cpp:170] Top shape: 50 1024 7 7 (2508800)
I0613 09:34:29.274550 35302 layer_factory.hpp:74] Creating layer relu6/sep
I0613 09:34:29.274554 35302 net.cpp:99] Creating Layer relu6/sep
I0613 09:34:29.274557 35302 net.cpp:479] relu6/sep <- conv6/sep
I0613 09:34:29.274559 35302 net.cpp:130] This layer is inheriting previous layer's sync mode: 1
I0613 09:34:29.274564 35302 net.cpp:424] relu6/sep -> conv6/sep (in-place)
I0613 09:34:29.274569 35302 net.cpp:163] Setting up relu6/sep
I0613 09:34:29.276744 35302 net.cpp:170] Top shape: 50 1024 7 7 (2508800)
I0613 09:34:29.276756 35302 layer_factory.hpp:74] Creating layer pool6
I0613 09:34:29.276763 35302 net.cpp:99] Creating Layer pool6
I0613 09:34:29.276767 35302 net.cpp:479] pool6 <- conv6/sep
I0613 09:34:29.276772 35302 net.cpp:130] This layer is inheriting previous layer's sync mode: 1
I0613 09:34:29.276777 35302 net.cpp:435] pool6 -> pool6
I0613 09:34:29.276790 35302 net.cpp:163] Setting up pool6
I0613 09:34:29.276971 35302 net.cpp:170] Top shape: 50 1024 1 1 (51200)
I0613 09:34:29.276980 35302 layer_factory.hpp:74] Creating layer fc7
I0613 09:34:29.276988 35302 net.cpp:99] Creating Layer fc7
I0613 09:34:29.276991 35302 net.cpp:479] fc7 <- pool6
I0613 09:34:29.276995 35302 net.cpp:130] This layer is inheriting previous layer's sync mode: 1
I0613 09:34:29.277000 35302 net.cpp:435] fc7 -> fc7
I0613 09:34:29.277005 35302 net.cpp:163] Setting up fc7
I0613 09:34:29.683289 35302 net.cpp:170] Top shape: 50 1000 1 1 (50000)
I0613 09:34:29.683323 35302 layer_factory.hpp:74] Creating layer fc7_fc7_0_split
I0613 09:34:29.683338 35302 net.cpp:99] Creating Layer fc7_fc7_0_split
I0613 09:34:29.683346 35302 net.cpp:479] fc7_fc7_0_split <- fc7
I0613 09:34:29.683354 35302 net.cpp:130] This layer is inheriting previous layer's sync mode: 1
I0613 09:34:29.683362 35302 net.cpp:435] fc7_fc7_0_split -> fc7_fc7_0_split_0
I0613 09:34:29.683377 35302 net.cpp:435] fc7_fc7_0_split -> fc7_fc7_0_split_1
I0613 09:34:29.683384 35302 net.cpp:435] fc7_fc7_0_split -> fc7_fc7_0_split_2
I0613 09:34:29.683390 35302 net.cpp:163] Setting up fc7_fc7_0_split
I0613 09:34:29.683403 35302 net.cpp:170] Top shape: 50 1000 1 1 (50000)
I0613 09:34:29.683408 35302 net.cpp:170] Top shape: 50 1000 1 1 (50000)
I0613 09:34:29.683429 35302 net.cpp:170] Top shape: 50 1000 1 1 (50000)
I0613 09:34:29.683434 35302 layer_factory.hpp:74] Creating layer loss
I0613 09:34:29.683442 35302 net.cpp:99] Creating Layer loss
I0613 09:34:29.683446 35302 net.cpp:479] loss <- fc7_fc7_0_split_0
I0613 09:34:29.683452 35302 net.cpp:479] loss <- label_data_1_split_0
I0613 09:34:29.683457 35302 net.cpp:130] This layer is inheriting previous layer's sync mode: 1
I0613 09:34:29.683465 35302 net.cpp:435] loss -> loss
…
